tinyShakespear/save/model.pt (torch_old, 398967 bytes, 15 tensors)

weight f4 [128, 64]
0.19618532 -0.43875885 -1.0288866 -0.25127146 0.64575464 -0.3565298 -0.70164293 0.059621323
-0.43713263 1.0947732 -0.7945248 1.4201344 0.8686294 0.5874063 0.14579444 -1.102315
0.4131534 -0.24081455 -0.33461726 -1.3286015 1.5617905 0.5169197 1.3896153 0.4482049
0.4300709 0.55837154 1.3060147 1.7323246 -0.3961458 2.3312542 0.68947434 0.7604932
-0.04318686 1.4856949 0.29260153 -1.3466885 -0.57438326 -2.4207761 0.00722927 -1.4926295
1.7587765 1.1781528 -1.591631 0.97277117 -1.1485454 1.4824945 -0.95080346 1.1645318
1.3766197 -0.57224494 0.34824774 0.25561205 -1.188586 -0.3067369 -0.9390348 -2.1325037
0.89623076 0.6454091 -0.364822 0.8685881 -0.633885 0.47362456 1.117331 -1.5436301
-0.40186375 1.2024088 -0.17206097 0.22020982 0.24260436 0.15283228 -0.81170064 -0.16780226
-0.22048038 0.05026093 -0.95692533 -0.7628195 0.90202826 0.3371849 0.5306042 -2.0441148
0.62288994 -0.22545753 -1.4434048 -0.57421917 -0.99547964 0.0984981 0.8847668 1.0138361
0.33304182 0.6788902 -2.2602408 0.27170637 0.5075378 0.10694791 0.47179917 1.125907
-0.870616 0.36127502 -0.09020635 0.7046595 -0.33316246 -0.87555027 0.29127485 1.2827238
1.1664411 0.38041618 1.9953984 -0.7566958 0.085927695 -0.6269496 -0.50601524 -1.1180674
-0.538799 -0.21116628 0.04870146 -0.99259335 -0.10857952 0.5754111 1.3776635 0.3083401
-1.4655094 -1.0701249 -0.5115104 -1.0455253 0.11995248 0.15552951 0.44215825 -0.99456125
-1.4381344 0.98218286 -0.5425964 -1.828896 0.776626 -0.20473024 0.22109665 0.033910476
-0.42457962 -0.5241778 2.2252522 -0.0631481 -1.3386192 -2.4446185 -2.917778 -1.4525827
1.0413465 1.678195 -0.8280293 0.45869657 0.28531775 -1.6823565 -0.004997564 2.221754
-0.3801805 -0.2716172 -0.789801 0.3735439 -1.2933567 1.7684404 0.8257035 0.4251362
0.7712163 -0.025632147 0.328447 0.69688797 -0.21978305 -1.7524713 -1.9701171 -0.6874271
0.8152207 0.21122982 0.34844807 1.2584093 0.7484755 0.38763273 0.53258127 0.7620575
2.1477656 -0.98841715 -0.85317576 -0.010063701 -0.11894049 1.0295292 -1.78098 -0.7706049
-1.1652795 -0.019293891 2.0651143 -0.032121167 -0.7509558 1.1734931 1.182977 0.30641577
0.073851414 -0.41529328 -0.7978352 -0.36777547 1.0711184 0.11306342 -0.32891536 -0.23935266
-1.7838613 -0.8840752 0.3976189 -0.10713034 0.055785745 -0.00858685 0.04722113 0.28679618
1.9952804 1.7133353 0.09717852 0.8806376 -0.10574255 -0.09482062 1.5028331 0.015148446
-1.4786161 -0.19728021 0.86433995 0.28104192 -0.27657562 0.62469465 1.1098801 -0.106191985
-0.50684804 -0.052020963 -0.42822662 -1.7312746 -0.89899886 -0.62650406 1.3907994 1.2681478
0.018739117 0.20993844 -0.1193069 -1.1377816 -1.1495255 -0.61850065 -0.7505032 -0.32448617
-0.659287 -0.80104035 0.70441043 -0.86878663 -0.84667534 -1.0453564 2.2438102 -0.21326263
1.0015795 -0.19252464 0.5314954 -1.1673291 0.60637856 -0.38326144 -0.7015125 0.68512905
00000000: cee4 483e 00a5 e0be 8eb2 83bf a7a6 80be
00000010: 2d50 253f 138b b6be df9e 33bf 7d35 743d
00000020: d9cf dfbe 8721 8c3f fa65 4bbf f7c6 b53f
00000030: 7f5e 5e3f 4260 163f 234b 153e a818 8dbf
00000040: d888 d33e 1798 76be f452 abbe 9d0f aabf
00000050: c0e8 c73f d954 043f eade b13f 1d7b e53e
00000060: 4132 dc3e 70f1 0e3f 7d2b a73f d0bc dd3f
00000070: 9fd3 cabe 4533 1540 6481 303f afaf 423f
00000080: b4e4 30bd 402b be3f decf 953e 4a60 acbf
00000090: c80a 13bf ffed 1ac0 83e3 ec3b 7c0e bfbf
000000a0: 971f e13f b6cd 963f 91ba cbbf 8807 793f
000000b0: 8903 93bf 61c2 bd3f db67 73bf 610f 953f
000000c0: 1335 b03f a57e 12bf 874d b23e 95df 823e
000000d0: 9623 98bf 9e0c 9dbe 9664 70bf f17a 08c0
000000e0: 616f 653f 8839 253f f3c9 babe ca5b 5e3f
000000f0: 4a46 22bf eb7e f23e b404 8f3f ac95 c5bf
00000100: 16c1 cdbe 88e8 993f c030 30be af7e 613e
00000110: 476d 783e 1180 1c3e 9dcb 4fbf 5bd4 2bbe
00000120: 9cc5 61be 68de 4d3d 0ff9 74bf 2448 43bf
00000130: 53eb 663f 80a3 ac3e add5 073f c7d2 02c0
00000140: b775 1f3f 57de 66be 7dc1 b8bf 0700 13bf
00000150: c1d7 7ebf 5fb9 c93d 1480 623f 62c5 813f
00000160: 7584 aa3e c0cb 2d3f c9a7 10c0 191d 8b3e
00000170: ffed 013f 8107 db3d a98f f13e b81d 903f
00000180: b1e0 5ebf 0af9 b83e 1bbe b8bd 9164 343f
00000190: 4594 aabe 1024 60bf fa21 953e 4b30 a43f
000001a0: f14d 953f e9c5 c23e 3769 ff3f d1b6 41bf
000001b0: dcfa af3d c57f 20bf 378a 01bf d51c 8fbf
000001c0: bbee 09bf f93b 58be 2f7b 473d 991a 7ebf
000001d0: f05e debd 244e 133f 4757 b03f c1de 9d3e
000001e0: d095 bbbf daf9 88bf 58f2 02bf c6d3 85bf
000001f0: a5a9 f53d 2143 1f3e 9162 e23e 919b 7ebf
00000200: ca14 b8bf 5670 7b3f 99e7 0abf 4419 eabf
00000210: f6d0 463f cea4 51be 2967 623e b6e5 0a3d
00000220: 8062 d9be 8430 06bf 886a 0e40 cb53 81bd
00000230: e057 abbf a174 1cc0 e0bc 3ac0 3bee b9bf
00000240: d84a 853f 18cf d63f baf9 53bf 47da ea3e
00000250: 2b15 923e 7557 d7bf 9bc2 a3bb 3831 0e40
00000260: 05a7 c2be 6911 8bbe 6630 4abf 2541 bf3e
00000270: b68c a5bf 415c e23f 4e61 533f 74ab d93e
00000280: 6e6e 453f 82fa d1bc 352a a83e 4067 323f
00000290: cf0e 61be fb50 e0bf cc2c fcbf 39fb 2fbf
000002a0: 4eb2 503f a14c 583e c967 b23e 8e13 a13f
000002b0: 179c 3f3f cc77 c63e 3f57 083f 3316 433f
000002c0: fe74 0940 e808 7dbf ba69 5abf 39e2 24bc
000002d0: 1297 f3bd 9dc7 833f 27f7 e3bf 5d46 45bf
000002e0: e127 95bf 390e 9ebc d52a 0440 7c91 03bd
000002f0: a43e 40bf 0635 963f ca6b 973f 87e2 9c3e
00000300: 693f 973d 52a1 d4be ed3e 4cbf 114d bcbe
00000310: 681a 893f cb8d e73d 9867 a8be dd18 75be
00000320: 9155 e4bf c152 62bf b494 cb3e 2767 dbbd
00000330: 987f 643d dcaf 0cbc f26a 413d f3d6 923e
00000340: 5965 ff3f 924e db3f 8805 c73d 7771 613f
00000350: 8d8f d8bd 5031 c2bd d65c c03f 3031 783c
00000360: 4b43 bdbf d303 4abe 6245 5d3f bae4 8f3e
00000370: 529b 8dbe fdeb 1f3f 8d10 8e3f 2f7b d9bd
00000380: cbc0 01bf ef13 55bd 8540 dbbe 689a ddbf
00000390: ca24 66bf 9262 20bf b705 b23f ab52 a23f
000003a0: c782 993c 1afa 563e 2d57 f4bd d4a2 91bf
000003b0: a723 93bf 0f56 1ebf fa20 40bf 0d23 a6be
000003c0: 08c7 28bf fb10 4dbf 3e54 343f cd68 5ebf
000003d0: b7bf 58bf 3dce 85bf 969a 0f40 8561 5abe
000003e0: c233 803f 2e25 45be 1510 083f 0a6b 95bf
000003f0: a03b 1b3f d83a c4be 5396 33bf 9e64 2f3f

weight f4 [64, 64]
-0.057730187 0.18021882 -0.0077314335 0.030900478 0.113037355 -0.09092633 0.10437958 -0.06669099
0.3101507 -0.15161838 0.08956764 0.09512233 0.051953156 0.07118709 -0.10914748 -0.11011134
0.21619387 -0.13332565 -0.124852404 -0.12230121 0.04209893 -0.13779987 0.0055681267 0.09064049
0.15535308 0.0010367935 0.09042213 -0.18455248 0.00089782017 0.116784796 0.018976323 -0.14922692
-0.025353737 -0.080107346 -0.08398403 0.03222837 0.17361024 -0.119565114 -0.20066534 -0.18274403
-0.04328257 -0.060823034 -0.3081037 -0.017500529 -0.108049564 -0.0062517053 0.069385245 -0.10888424
-0.12541616 -0.03334698 0.11643846 0.08068808 -0.0031221742 0.032847382 0.040508453 0.018307894
-0.07022417 0.016055161 0.065916434 0.07308026 0.09459954 -0.24722025 0.06870293 -0.1387196
-0.13772807 0.034346733 0.042964976 0.01129351 0.043438554 -0.011476701 0.3952579 -0.027026094
-0.10323284 0.03860293 -0.3528179 0.18436834 -0.074622445 -0.07041372 -0.045544196 -0.11463566
-0.10414632 0.15531638 -0.018145373 -0.03422212 0.14113155 -0.056583337 -0.01411911 -0.26506445
-0.19654283 -0.04866343 0.051487297 -0.16175549 -0.09979649 0.095487736 0.1431855 0.19175455
-0.1869541 0.005105329 0.118071064 -0.037019994 -0.007581788 0.23681097 -0.02568844 -0.047346793
0.09094096 0.054003894 0.091179274 0.15111127 0.041780043 0.10033815 -0.33995202 0.21880111
0.06511328 0.047570452 0.13965364 -0.009680103 -0.18944906 -0.090934165 0.110894926 0.15681525
-0.1074066 0.04275087 0.035340395 0.10768343 -0.009886727 0.09144673 0.084568776 0.0615336
0.09035597 0.12835996 -0.18269745 -0.14206333 0.12648186 -0.040526774 -0.15035677 -0.023629615
0.16065073 -0.23413183 0.07272116 -0.046922453 0.012543395 0.1547218 -0.16167167 0.069822505
-0.17579314 0.24118508 0.036875315 -0.041070763 -0.013976059 0.022375576 -0.059309285 -0.12275458
0.11047908 0.10853881 0.016557142 0.011709604 0.17405304 0.008406093 0.037529025 0.11987536
0.089792974 -0.04621027 0.10745134 0.1318922 -0.017235082 -0.06081603 0.06431024 -0.14663579
-0.028127223 -0.07290555 -0.11037313 0.05338934 0.0051070596 -0.052364882 -0.03686088 -0.090059094
0.14642426 -0.096269414 0.13445273 -0.004963175 0.045003787 0.17784728 -0.0047569675 -0.038644582
0.33172327 -0.12998608 0.0879709 0.12541112 -0.07267016 0.0976107 0.13922861 0.03862273
0.00973271 -0.010593433 -0.15684432 -0.0056028645 -0.058107298 0.15969253 0.1400466 0.23237395
0.13655685 0.17461339 0.050494537 -0.0510269 0.07520408 0.05811035 0.14168638 0.056987427
0.1711828 -0.029704506 0.08337598 0.03016936 -0.06554664 -0.011824491 0.08896041 0.11481285
0.15626189 -0.08345008 0.011309265 -0.031027982 -0.10177424 -0.0023393226 0.048201047 -0.009141133
-0.031290207 0.12557694 0.09280381 -0.014331613 0.089065574 -0.083594665 -0.09676068 -0.1422516
0.01858333 -0.03803576 -0.2411371 -0.044293065 -0.028652783 0.00061757315 -0.10571199 0.028627355
-0.24038884 -0.11931649 0.0043625706 -0.011610669 0.08671639 0.140703 -0.09258237 0.015070977
0.09939024 0.097497575 0.118576676 -0.01777798 0.011325436 0.037702236 -0.006904149 -0.1126243
00000000: 7d76 6cbd 488b 383e f757 fdbb 0023 fd3c
00000010: 2180 e73d 9537 babd f6c4 d53d 4995 88bd
00000020: 13cc 9e3e d941 1bbe 3d6f b73d 7fcf c23d
00000030: d5cc 543d 89ca 913d b788 dfbd 0e82 e1bd
00000040: ed61 5d3e 8586 08be 9eb2 ffbd 0f79 fabd
00000050: ed6f 2c3d 691b 0dbe d574 b63b b9a1 b93d
00000060: e114 1f3e 04e5 873a 3d2f b93d 53fb 3cbe
00000070: b15b 6b3a de2c ef3d 3c74 9b3c f1ce 18be
00000080: a4b2 cfbc 520f a4bd d2ff abbd e501 043d
00000090: e2c6 313e 8ede f4bd 377b 4dbe 4021 3bbe
000000a0: 1049 31bd 9321 79bd c5bf 9dbe 455d 8fbc
000000b0: 1749 ddbd 1bdb ccbb da19 8e3d b3fe debd
000000c0: 186d 00be d896 08bd 4a77 ee3d cb3f a53d
000000d0: 649d 4cbb fa8a 063d 31ec 253d 70fa 953c
000000e0: b1d1 8fbd 1d86 833c 32ff 863d 1aab 953d
000000f0: 67bd c13d 4e27 7dbe 1fb4 8c3d 830c 0ebe
00000100: 9608 0dbe 29af 0c3d 0bfc 2f3d 6a08 393c
00000110: a0ec 313d c608 3cbc 3e5f ca3e d465 ddbc
00000120: bd6b d3bd 1b1e 1e3d 8ca4 b4be 0ecb 3c3e
00000130: a7d3 98bd 1235 90bd 8d8c 3abd 1ac6 eabd
00000140: aa4a d5bd 420b 1f3e 9ba5 94bc 7e2c 0cbd
00000150: ca84 103e eec3 67bd d753 67bc 87b6 87be
00000160: 8642 49be 4e53 47bd 58e4 523d 3ba3 25be
00000170: 1a62 ccbd 138f c33d 389f 123e 4e5b 443e
00000180: e570 3fbe 9b4a a73b 3ecf f13d 47a2 17bd
00000190: a670 f8bb 937e 723e 9070 d2bc b6ee 41bd
000001a0: 413f ba3d 3033 5d3d 33bc ba3d eabc 1a3e
000001b0: 8d21 2b3d 177e cd3d 310e aebe 660d 603e
000001c0: 1d5a 853d 3cd9 423d 5d01 0f3e 4b99 1ebc
000001d0: effe 41be b13b babd e11c e33d 2d94 203e
000001e0: fef7 dbbd 891b 2f3d 17c1 103d 2189 dc3d
000001f0: f0fb 21bc 6c48 bb3d 6532 ad3d a80a 7c3d
00000200: 8d0c b93d cb70 033e 0a15 3bbe 0d79 11be
00000210: 7684 013e 67ff 25bd 20f7 19be e592 c1bc
00000220: a081 243e 41c0 6fbe d5ee 943d c231 40bd
00000230: d082 4d3c 646f 1e3e 428d 25be 1aff 8e3d
00000240: 1e03 34be 39f9 763e 920a 173d d139 28bd
00000250: d7fb 64bc fc4c b73c 4bee 72bd c166 fbbd
00000260: db42 e23d 9849 de3d d8a2 873c a4d9 3f3c
00000270: f63a 323e b6b9 093c 09b8 193d 3681 f53d
00000280: 61e5 b73d fb46 3dbd 730f dc3d c00e 073e
00000290: 9630 8dbc 3b1a 79bd 16b5 833d b127 16be
000002a0: 106b e6bc 814f 95bd 4f0b e2bd c8ae 5a3d
000002b0: 1f59 a73b 8f7c 56bd 6ffb 16bd e770 b8bd
000002c0: 3ef0 153e e628 c5bd faad 093e 21a2 a2bb
000002d0: e455 383d 991d 363e 56e0 9bbb c849 1ebd
000002e0: a2d7 a93e 121b 05be 162a b43d c66b 003e
000002f0: 18d4 94bd 1ee8 c73d f291 0e3e de32 1e3d
00000300: f275 1f3c 1490 2dbc cc9b 20be 3c98 b7bb
00000310: eb01 6ebd 7086 233e 6068 0f3e 70f3 6d3e
00000320: 8fd5 0b3e dacd 323e 5cd3 4e3d 9501 51bd
00000330: 9904 9a3d 1e05 6e3d 3c16 113e a66b 693d
00000340: 8b4a 2f3e dd56 f3bc 07c1 aa3d bc25 f73c
00000350: 513d 86bd 83bb 41bc e030 b63d 0023 eb3d
00000360: 1e03 203e e0e7 aabd 7f4a 393c 652e febc
00000370: 036f d0bd 524f 19bb 766e 453d b1c4 15bc
00000380: 292a 00bd 3e97 003e ed0f be3d 24cf 6abc
00000390: 0368 b63d ae33 abbd 772a c6bd 67aa 11be
000003a0: 113c 983c 63cb 1bbd a5ec 76be a56c 35bd
000003b0: 3eb9 eabc a2e4 213a 877f d8bd ea83 ea3c
000003c0: 7e28 76be 345c f4bd e5f3 8e3b ad3a 3ebc
000003d0: 5d98 b13d 7214 103e d39b bdbd 42ec 763c
000003e0: 1c8d cb3d cfac c73d 54d8 f23d 20a3 91bc
000003f0: 528e 393c a96d 1a3d 333c e2bb 92a7 e6bd

bias f4 [64]
-0.119952545 -0.07435118 -0.110607825 -0.0895069 0.02738185 -0.03970178 -0.2093003 -0.09867973
0.040281065 -0.04355396 0.017553786 -0.041304026 -0.060527854 -0.034231972 0.028583195 -0.1979037
-0.08059095 -0.035008635 0.042396586 0.0675112 -0.02048646 0.01550949 0.011247986 -0.077253625
0.05951485 -0.19369878 -0.02178732 -0.10002551 -0.106718995 -0.08751309 0.007775791 -0.10598066
-0.0005860312 -0.03353505 -0.015691815 -0.015829707 -0.031654943 0.06746203 0.067049995 -0.19873935
-0.10120085 0.08401615 -0.042252537 -0.121446595 -0.16902782 -0.07460751 -0.111342564 -0.045759536
-0.19277522 0.035457186 -0.03142748 -0.14498052 -0.09041005 -0.15942162 -0.06390435 -0.1273394
-0.08259166 -0.10227638 -0.009541421 -0.013714413 0.081581384 -0.023963055 -0.14984578 -0.012522353
00000000: aea9 f5bd 6e45 98bd 5b86 e2bd 654f b7bd
00000010: e74f e03c 559e 22bd d152 56be 9918 cabd
00000020: c2fd 243d a365 32bd f5cc 8f3c 692e 29bd
00000030: 0eec 77bd d336 0cbd 4e27 ea3c 44a7 4abe
00000040: de0c a5bd 3765 0fbd 0ba8 2d3d 5043 8a3d
00000050: 38d3 a7bc 841b 7e3c 7949 383c 2637 9ebd
00000060: d8c5 733d f958 46be 527b b2bc 2dda ccbd
00000070: 7d8f dabd 103a b3bd 10cc fe3b 630c d9bd
00000080: e39f 19ba 0c5c 09bd 1f8c 80bc 4dad 81bc
00000090: 9da8 01bd 8829 8a3d 8251 893d 5482 4bbe
000000a0: 6442 cfbd a910 ac3d ff10 2dbd feb8 f8bd
000000b0: a115 2dbe d2cb 98bd 9207 e4bd 5a6e 3bbd
000000c0: de66 45be 8e3b 113d 1aba 00bd c675 14be
000000d0: e728 b9bd 6c3f 23be 49e0 82bd 4265 02be
000000e0: d125 a9bd 4776 d1bd 9f53 1cbc 6bb2 60bc
000000f0: 2414 a73d 2b4e c4bc 2c71 19be 8e2a 4dbc

weight f4 [128, 128]
0.011351992 0.009100375 -0.00902001 -0.012901237 0.012335045 -0.003455068 0.0073541827 -0.010772224
-0.021926677 -0.0031799083 -0.009684666 0.017562011 0.008110933 -0.008846414 -0.017057989 -0.008155024
-0.017928936 -0.0006517375 0.019620921 0.015371084 -0.0038917626 0.0028619706 0.0051803826 0.018485107
-0.0050427807 0.024480581 -0.013777081 -0.002796111 0.014559037 0.021076022 -0.0024476598 0.0014382787
-0.009169821 0.0146779 0.0072047138 -0.0011002905 0.0036978205 -0.014187391 0.014984991 0.025867907
0.021094153 0.0010412346 0.012452819 0.0043121777 -0.001340253 0.0077944095 -0.0010040379 0.0077100117
0.00812756 -0.0074230824 -0.0075840764 0.009860073 0.019708177 -0.0042978204 -0.007420545 -0.010720438
0.003964455 -0.0071344883 -0.006295587 0.0058248853 -0.0067742094 -0.0020797283 0.021088108 0.003595641
0.016688498 -0.13184339 0.014549777 -0.09390183 -0.035693508 -0.058402035 -0.025398953 -0.053146314
-0.03697813 -0.122085534 -0.054112002 0.020732079 -0.06704682 -0.05400502 0.047343437 0.07393174
0.036106523 0.039763015 0.033674452 -0.002546924 0.073472455 -0.0154533135 -0.053665638 -0.04677409
-0.025237938 -0.07394269 0.0057362267 0.03690657 -0.04698551 -0.052369162 0.016823262 -0.08194988
-0.040582094 -0.0006641991 -0.057290938 -0.09272676 -0.09686101 -0.07582272 0.10973307 -0.051007528
-0.01814177 0.08139755 0.12677233 -0.014236093 0.029375982 -0.018545892 -0.06598556 -0.04719591
0.015309512 -0.104403704 0.1797777 0.031320795 0.09421647 0.059294894 0.08391901 0.049890697
0.022093639 -0.12088859 0.048484866 -0.06437502 0.031510815 0.046454646 0.03734398 -0.0452059
-0.03477518 -0.005829165 -0.0021986119 -0.0056037065 0.0050833896 0.0179587 -0.0021129756 -0.006708277
-0.011489979 0.029930752 0.018729722 -0.011242627 -0.02062429 0.02564354 0.014451904 0.03244924
0.0012286793 -0.010738851 -0.012859931 0.014933841 -0.01940014 0.043381717 0.029370777 -0.0073683267
-0.0036376035 -0.0079414435 0.022655785 0.006567148 0.02116622 -0.015059919 0.017868567 -0.026469398
-0.0047943015 -0.006811945 -0.011692158 -0.004585497 -0.04373098 -0.009521786 0.04182807 -0.03415928
-0.041478716 -0.004156142 -0.0017061832 0.010945454 -0.0015766721 0.03385875 0.026344521 0.0060769273
-0.004424168 -0.012883626 0.00048664477 0.008870197 0.0035576208 -0.019673537 -0.013609748 0.020737164
-0.0011895866 0.002320241 -0.0075630676 0.011742144 0.029345589 -0.013627571 0.03007561 0.021028379
0.067525305 0.000884141 -0.02071201 -0.07990414 0.042783987 -0.026409205 0.016374093 -0.0682456
0.00135687 -0.06439453 0.047777478 0.05118776 0.0188168 -0.026403645 0.0055414042 -0.0056568068
0.048224803 -0.02248927 -0.093867056 -0.03238364 -0.014416819 -0.027126897 -0.0154510075 0.074510895
0.0077132676 -0.025320321 -0.041687626 -0.0231604 0.050343994 0.013439122 0.025734318 0.085788794
-0.029351432 0.021088094 -0.013609485 -0.007489077 0.082681164 0.07245614 0.002694205 0.000826575
-0.003477215 -0.06634729 0.020292062 0.015096947 0.020278547 0.010313478 -0.0014043883 -0.009141515
-0.03383217 -0.0025012386 -0.064511396 -0.032680675 -0.1023914 0.044088207 0.08729879 0.06052602
0.0025893054 0.03046357 -0.065199345 -0.03024634 0.024062783 -0.06472744 0.03752719 0.028051546
00000000: b5fd 393c bd19 153c aac8 13bc b65f 53bc
00000010: ee18 4a3c 6c6e 62bb 5bfb f03b fb7d 30bc
00000020: 939f b3bc 0266 50bb 6fac 1ebc 35de 8f3c
00000030: b8e3 043c 8df0 10bc 32bd 8bbc a69c 05bc
00000040: b4df 92bc 5dd9 2aba 0ebc a03c 00d7 7b3c
00000050: f10c 7fbb e68f 3b3b 33c0 a93b 146e 973c
00000060: e93d a5bb 808b c83c 44b9 61bc f53e 37bb
00000070: 0789 6e3c 9fa7 ac3c eb68 20bb a084 bc3a
00000080: 043d 16bc 937b 703c 8515 ec3b 9f37 90ba
00000090: 2257 723b 3b72 68bc 9c83 753c efe8 d33c
000000a0: a5cd ac3c 097a 883a e906 4c3c 2b4d 8d3b
000000b0: 6eab afba 3f68 ff3b ec99 83ba 44a4 fc3b
000000c0: 7529 053c 543d f3bb d883 f8bb 258c 213c
000000d0: 0b73 a13c bbd4 8cbb 0b28 f3bb c7a4 2fbc
000000e0: 42e8 813b 6dc8 e9bb 364b cebb aede be3b
000000f0: 30fa ddbb 0d4c 08bb f8c0 ac3c d9a4 6b3b
00000100: 51b6 883c f401 07be 3062 6e3c 9a4f c0bd
00000110: 5b33 12bd f936 6fbd 7711 d0bc f3af 59bd
00000120: 6176 17bd fb07 fabd 8ca4 5dbd 52d6 a93c
00000130: d84f 89bd 5e34 5dbd 31eb 413d 8669 973d
00000140: 6fe4 133d 8bde 223d 39ee 093d 4bea 26bb
00000150: ba78 963d e52f 7dbc 80d0 5bbd 3096 3fbd
00000160: cbbf cebc 446f 97bd f5f6 bb3b 582b 173d
00000170: e173 40bd 0c81 56bd f0d0 893c 57d5 a7bd
00000180: 6939 26bd a61d 2eba e7a9 6abd 87e7 bdbd
00000190: 115f c6bd f148 9bbd bbbb e03d 45ed 50bd
000001a0: 0d9e 94bc c2b3 a63d 9bd0 013e 803e 69bc
000001b0: e6a5 f03c 8eed 97bc 7023 87bd 8050 41bd
000001c0: bfd4 7a3c 9cd1 d5bd a517 383e 3c4a 003d
000001d0: 91f4 c03d 34df 723d bbdd ab3d 305a 4c3d
000001e0: b8fd b43c 7094 f7bd 1198 463d 0dd7 83bd
000001f0: 7c11 013d 3a47 3e3d 00f6 183d d229 39bd
00000200: 6b70 0ebd 9502 bfbb 9616 10bb 4c9f b7bb
00000210: 9092 a63b 201e 933c d979 0abb 1bd1 dbbb
00000220: 7740 3cbc 5631 f53c 136f 993c ff32 38bc
00000230: 45f4 a8bc 6712 d23c aec7 6c3c 7fe9 043d
00000240: a30b a13a 01f2 2fbc 76b2 52bc 12ad 743c
00000250: 0bed 9ebc 07b1 313d fc9a f03c 0172 f1bb
00000260: dc64 6ebb d41c 02bc a098 b93c 3b31 d73b
00000270: c864 ad3c e1bd 76bc 1a61 923c 5ad6 d8bc
00000280: 8419 9dbb bc36 dfbb 7790 3fbc f041 96bb
00000290: 421f 33bd 4401 1cbc e953 2b3d 9aea 0bbd
000002a0: 96e5 29bd 3f30 88bb 02a2 dfba 9054 333c
000002b0: 56a8 ceba 79af 0a3d 77d0 d73c f620 c73b
000002c0: 9cf8 90bb d815 53bc 5b24 ff39 4e54 113c
000002d0: f926 693b 662a a1bc 6cfb 5ebc fce0 a93c
000002e0: e7eb 9bba 2f0f 183b 9cd3 f7bb 1f62 403c
000002f0: 2966 f03c 2d46 5fbc 2061 f63c b543 ac3c
00000300: b54a 8a3d b3c5 673a 3cac a9bc c8a4 a3bd
00000310: 433e 2f3d 1e58 d8bc f622 863c 59c4 8bbd
00000320: 01d9 b13a 48e1 83bd 51b2 433d 42aa 513d
00000330: b125 9a3c 754c d8bc ab94 b53b bc5c b9bb
00000340: 5f87 453d 6b3b b8bc 5f3d c0bd b5a4 04bd
00000350: 8634 6cbc 3a39 debc 3926 7dbc 2b99 983d
00000360: 94bf fc3b 906c cfbc a5c0 2abd e1ba bdbc
00000370: 8135 4e3d c32f 5c3c c7d0 d23c 09b2 af3d
00000380: 6a72 f0bc f0c0 ac3c 51fa 5ebc ee66 f5bb
00000390: be54 a93d e263 943d 4291 303b 82ae 583a
000003a0: fde1 63bb 17e1 87bd 8a3b a63c 2f59 773c
000003b0: 321f a63c ddf9 283c 7413 b8ba 4bc6 15bc
000003c0: 9a93 0abd d2eb 23bb 8d1e 84bd 2cdc 05bd
000003d0: 95b2 d1bd d695 343d b5c9 b23d 22ea 773d
000003e0: 56b1 293b bd8e f93c 3c87 85bd 2cc7 f7bc
000003f0: 501f c53c d28f 84bd 1cb6 193d 5bcc e53c

bias f4 [128]
0.027782168 0.06608541 0.017675282 -0.102333665 0.039697055 -0.025095103 -0.010504432 -0.04423504
0.0014059934 -0.0569806 0.0051301327 0.08064325 -0.026321903 0.043258555 0.01518001 0.111312665
0.041793782 -0.009583431 -0.012371272 -0.04004755 -0.0568297 -0.0032343206 -0.031247059 0.062167224
-0.050677367 -0.06539755 0.04722596 0.027064763 0.071710095 -0.03670241 0.021400155 -0.025203183
0.11207494 0.10970478 -0.017241128 0.008739396 -0.01743857 0.0016938851 0.030371867 -0.0017422995
-0.039705917 -0.02500766 -0.0056280573 -0.011829564 0.014484258 0.025347032 0.010333727 0.03207104
-0.019997958 -0.08097867 -0.0026535138 -0.025539577 0.077032395 -0.038969424 0.064982206 -0.12866464
-0.10924475 0.021473719 -0.021951986 -0.020835092 -0.0746747 -0.020278811 -0.04368017 0.08390617
-0.033900622 -4.8370475e-05 -0.07083218 -0.06925205 0.06002641 0.04034527 0.10197237 -0.032917053
0.024091924 -0.0056869006 -0.019187508 0.05415763 0.033686053 -0.024467312 0.029174285 -0.025562579
0.022026582 -0.03597507 0.0090652285 0.00088209816 -0.0075404826 -0.025297003 0.055521943 0.014003027
0.09756941 -0.03204194 0.012495564 -0.08170808 0.017309241 -0.06918755 0.012609698 0.047210455
0.048336867 0.021097241 0.039187282 -0.009409294 0.03937077 0.09226542 -0.008064183 0.026211128
0.035274193 0.029843641 0.023442639 0.008901598 -0.037848055 -0.010640811 0.069358066 0.030136341
0.03022118 0.0666977 -0.008502181 -0.0050080833 -0.026536899 -0.017512238 0.027583443 -0.07472327
-0.026236337 0.0054868967 -0.060207345 0.027193723 0.027943108 0.038865153 0.01920293 -0.046728816
00000000: 6e97 e33c ca57 873d c1cb 903c 5094 d1bd
00000010: 6199 223d 3f94 cdbc c81a 2cbc cd2f 35bd
00000020: 4f49 b83a 7d64 69bd ac1a a83b 4a28 a53d
00000030: 08a1 d7bc e22f 313d 94b5 783c e5f7 e33d
00000040: f52f 2b3d d303 1dbc e0b0 4abc e608 24bd
00000050: 42c6 68bd e5f6 53bb d5f9 ffbc 0fa3 7e3d
00000060: 1293 4fbd 27ef 85bd 0270 413d ecb6 dd3c
00000070: bedc 923d 4455 16bd 614f af3c e876 cebc
00000080: 8c87 e53d e6ac e03d 443d 8dbc af2f 0f3c
00000090: 55db 8ebc 5a05 de3a 6cce f83c df5d e4ba
000000a0: aca2 22bd dddc ccbc 916b b8bb cad0 41bc
000000b0: 624f 6d3c 94a4 cf3c cb4e 293c ec5c 033d
000000c0: c2d2 a3bc 25d8 a5bd 93e6 2dbb 6038 d1bc
000000d0: 29c3 9d3d 679e 1fbd 6415 853d aac0 03be
000000e0: b6bb dfbd a7e9 af3c a7d4 b3bc 5bae aabc
000000f0: 0def 98bd c01f a6bc fae9 32bd 00d7 ab3d
00000100: 61db 0abd 67e1 4ab8 7610 91bd 05d4 8dbd
00000110: 41de 753d 1541 253d e4d6 d03d 08d4 06bd
00000120: 6d5c c53c 2e59 babb 1f2f 9dbc 64d4 5d3d
00000130: 63fa 093d ac6f c8bc e9fe ee3c 9d68 d1bc
00000140: 1771 b43c 985a 13bd 5386 143c 9b3c 673a
00000150: 2716 f7bb a93b cfbc fa6a 633d f46c 653c
00000160: 79d2 c73d 693e 03bd 32ba 4c3c 9156 a7bd
00000170: 1ccc 8d3c 34b2 8dbd e898 4e3c c05f 413d
00000180: e1fc 453d 1fd4 ac3c d882 203d 7129 1abc
00000190: 3f43 213d a7f5 bc3d a31f 04bc b8b8 d63c
000001a0: ac7b 103d a77a f43c c70a c03c 02d8 113c
000001b0: 9006 1bbd cc56 2ebc 9a0b 8e3d 7de0 f63c
000001c0: 6892 f73c ce98 883d bb4c 0bbc d91a a4bb
000001d0: e963 d9bc d375 8fbc acf6 e13c 8408 99bd
000001e0: 96ed d6bc 6dcb b33b fa9b 76bd 5fc5 de3c
000001f0: f2e8 e43c 1131 1f3d 774f 9d3c b766 3fbd

weight f4 [64, 64]
-0.008420099 0.014197555 0.01117423 0.014439112 -0.0086607095 0.014743343 0.0020315256 -0.0035159758
-0.01154523 -0.00908536 -0.014088302 -0.0154307 -0.007590748 -0.018030588 0.028024899 -0.00045243473
0.010622878 -0.010768774 -0.018167417 -0.011654416 -0.011622875 -0.0011996117 0.01269319 0.023233967
-0.004127088 0.015515483 0.020616993 0.022585103 -0.0045760823 0.016320776 0.0013498077 0.009980525
-0.009435349 -0.0029030012 -0.006214955 -0.017725779 -0.009900834 0.01098889 -0.005347883 -0.00016758918
-0.0040332666 -0.01650767 0.014040891 0.016696392 0.009753907 -0.0013121958 -0.007041325 0.00694197
0.019417249 0.008834324 0.026499761 0.020358333 -0.0018495665 -0.03147543 -0.020514423 -0.00038075313
0.0014028812 0.0018731259 -0.0010856304 0.01355263 -0.01465848 -0.015831165 -0.00403483 -0.0015344733
-0.009579142 0.013965794 -0.016448773 0.017746951 0.0022171363 -0.0042859693 -0.0045644096 -0.020274129
0.01676926 -0.007283745 0.004161049 -0.01465926 0.0019453181 -0.00021612775 0.024180591 -0.0050463635
0.008053829 -0.007840835 0.014676775 0.019542808 0.019929454 0.008275225 -0.008712836 0.002599218
0.011158268 0.02810159 0.025690692 -0.0040119025 -0.022224179 -0.0054362896 0.021883251 -0.0056623416
0.03139664 -0.0025600882 0.00497189 -0.008544806 -0.019605381 0.008566614 -0.011928099 -9.3496354e-05
-0.018325917 -0.01066695 0.00908859 0.0053820475 0.0023147361 -0.008028589 -0.016412335 0.013910188
0.019678965 -0.0034983961 -0.004997361 -0.0050007133 -0.0032061723 0.0063251625 0.013623322 0.004998585
-0.0063474965 0.015179376 0.01732856 0.015273351 -0.009954966 -0.0074192546 0.011231593 -0.011523148
0.0077834134 -0.0168356 0.023149092 -0.008548501 -0.0078146225 -0.0015052615 -0.012161309 0.0010466175
-0.007818873 0.0041343137 0.008679628 -0.016081177 -0.008417112 -0.012449612 0.008335987 0.02673572
0.008289146 -0.01380598 -0.010731111 -0.0035924423 0.021715371 -0.025463538 0.013231966 0.012813186
-0.002424083 -0.0027774924 -0.0034713356 0.0041052345 -0.004844213 0.009960852 0.02376153 0.004409798
-0.004843635 -0.02939311 0.0011748461 0.010874164 0.0029987118 -0.0053968206 -0.0073616523 0.004970601
0.003996939 -0.0068160747 -0.0018422992 0.0063104196 0.029923137 -0.029212944 -0.0051885415 0.005094055
-0.0028171004 0.008162988 -0.014411863 -0.0077407905 0.012767466 -0.0084365485 0.007479428 0.0215527
-0.020895498 0.009574979 0.008523008 0.02066516 -0.023348616 -0.005434258 -0.007639572 0.0069680666
-0.0059007723 -0.009253158 0.0020909638 -0.013505686 0.00014500236 -0.015133658 0.026489204 0.009339756
0.011987902 0.0010566856 -0.002097962 0.0020043284 -0.013151832 0.020083524 -0.020734986 0.017939571
-0.0043149525 0.0066486476 -0.005853999 0.008256793 -0.00087272807 -0.0030447764 -0.0006115888 0.0075929514
0.0007595693 -0.0023956583 -0.007508603 0.004380583 -0.0029991504 0.0068316264 -0.0012794444 0.015161736
0.013362319 0.02245719 -0.013060017 -0.0010031293 0.03542662 -0.0046836557 -0.008925773 0.013563132
-0.0070092618 0.022237204 0.0071977517 -0.0007675784 0.003163524 0.021189202 0.014290613 -0.008814121
-0.0044723176 -0.0022674957 0.022944672 0.0058764606 0.017390093 0.012001066 -0.020091439 0.005657572
-0.011382725 -0.011772981 0.0043413443 0.006680458 -0.0054570567 -0.017004738 -0.013176059 -0.009827055
00000000: 74f4 09bc dd9c 683c 1e14 373c 0692 6c3c
00000010: a6e5 0dbc 108e 713c 5823 053b 496c 66bb
00000020: 3428 3dbc c3da 14bc 9fd2 66bc 0cd1 7cbc
00000030: cfbb f8bb e2b4 93bc 7994 e53c c334 edb9
00000040: 940b 2e3c 836f 30bc d6d3 94bc 2af2 3ebc
00000050: df6d 3ebc 4a3c 9dba 19f7 4f3c 2955 be3c
00000060: 863c 87bb a734 7e3c f8e4 a83c 6504 b93c
00000070: f6f2 95bb 26b3 853c 08ec b03a 5b85 233c
00000080: b996 1abc 4740 3ebb d2a6 cbbb a735 91bc
00000090: 1c37 22bc bf0a 343c 4b3d afbb e1ba 2fb9
000000a0: 7e29 84bb 183b 87bc c40b 663c dfc6 883c
000000b0: dace 1f3c fcfd abba eaba e6bb 7779 e33b
000000c0: ec10 9f3c d7bd 103c 0716 d93c 85c6 a63c
000000d0: 276d f2ba 61ec 00bd dd0d a8bc d29f c7b9
000000e0: e2e0 b73a ad83 f53a b64b 8eba da0b 5e3c
000000f0: 1f2a 70bc 5cb0 81bc 9b36 84bb 6120 c9ba
00000100: d5f1 1cbc c9d0 643c 94bf 86bc 0e62 913c
00000110: 604d 113b 5171 8cbb 0b91 95bb ee15 a6bc
00000120: b05f 893c 7bac eebb 6959 883b 652d 70bc
00000130: 0bfa fe3a 5aa0 62b9 6016 c63c f75b a5bb
00000140: 35f4 033c d876 00bc db76 703c 3d18 a03c
00000150: 1843 a33c cf94 073c 48c0 0ebc a457 2a3b
00000160: 2bd1 363c 4e35 e63c 4975 d23c 4776 83bb
00000170: 7b0f b6bc e722 b2bb 8144 b33c 2a8b b9bb
00000180: c399 003d 27c7 27bb 3ceb a23b 84ff 0bbc
00000190: 779b a0bc fc5a 0c3c 136e 43bc 7913 c4b8
000001a0: 3c20 96bc 6ec4 2ebc 4fe8 143c e35b b03b
000001b0: d4b2 173b 588a 03bc 2973 86bc 8fe7 633c
000001c0: c835 a13c 5945 65bb e7c0 a3bb 06dd a3bb
000001d0: a51e 52bb 4f43 cf3b 5b34 5f3c 2ccb a33b
000001e0: a9fe cfbb ebb2 783c a0f4 8d3c 143d 7a3c
000001f0: 271a 23bc 381d f3bb b704 383c 96cb 3cbc
00000200: 010c ff3b d0ea 89bc 2aa3 bd3c 030f 0cbc
00000210: e708 00bc 324c c5ba 3a40 47bc a82e 893a
00000220: bb1a 00bc 2379 873b 0035 0e3c acbc 83bc
00000230: ede7 09bc 75f9 4bbc aa93 083c de04 db3c
00000240: 33cf 073c 7a32 62bc 8bd1 2fbc 2e6f 6bbb
00000250: 6fe4 b13c e998 d0bc e3ca 583c 66ee 513c
00000260: 5ddd 1ebb 9706 36bb 597f 63bb 3485 863b
00000270: 34bc 9ebb d732 233c 8aa7 c23c 1180 903b
00000280: 5bb7 9ebb d2c9 f0bc 4bfd 993a 8d29 323c
00000290: 0986 443b d0d7 b0bb 043a f1bb 6ce0 a23b
000002a0: c1f8 823b 6159 dfbb 4e79 f1ba a3c7 ce3b
000002b0: 5e21 f53c fc4f efbc a404 aabb 08ec a63b
000002c0: 1a9f 38bb 0ebe 053c bc1f 6cbc 75a6 fdbb
000002d0: a22e 513c 7339 0abc fd15 f53b 4a8f b03c
000002e0: 092d abbc 5fe0 1c3c 16a4 0b3c fb49 a93c
000002f0: 9945 bfbc dc11 b2bb 6055 fabb 6154 e43b
00000300: 445b c1bb 8f9a 17bc 8d08 093b f446 5dbc
00000310: c60b 1839 2af3 77bc e3ff d83c c705 193c
00000320: e868 443c 7c80 8a3a f67d 09bb 0d5b 033b
00000330: c87a 57bc 3486 a43c 6bdc a9bc 02f6 923c
00000340: 7264 8dbb e6dc d93b e7d2 bfbb 8047 073c
00000350: cac7 64ba df8a 47bb 0853 20ba 4bce f83b
00000360: d51d 473a 7a00 1dbb ba0a f6bb fe8a 8f3b
00000370: 658d 44bb d6db df3b 08b3 a7ba ee68 783c
00000380: a1ed 5a3c 24f8 b73c aef9 55bc 6f7b 83ba
00000390: 811b 113d 5a79 99bb 683d 12bc e637 5e3c
000003a0: f3ad e5bb cc2a b63c 1edb eb3b 5137 49ba
000003b0: 2053 4f3b fa94 ad3c 2d23 6a3c 1a69 10bc
000003c0: 858c 92bb 449a 14bb 77f6 bb3c 538f c03b
000003d0: ab75 8e3c 1ea0 443c cd96 a4bc 2763 b93b
000003e0: 9c7e 3abc 76e3 40bc d641 8e3b bee7 da3b
000003f0: 1cd1 b2bb 854d 8bbc 66e0 57bc a801 21bc

bias f4 [64]
0.017878298 -0.088009275 -0.012397191 0.061037567 0.015637921 -1.1299329 -0.1791149 -0.0006167773
0.27365515 -0.21093653 0.19937737 7.3848154e-05 0.06670531 -0.074630715 -0.6133913 -0.0370573
0.07119362 -0.6695337 0.11427591 0.17968492 -0.075480595 0.030882964 0.030851793 -0.012361837
0.055331472 0.075672515 0.07198197 0.09455744 0.10210295 0.024900591 -0.10385013 0.12832084
0.13518195 0.064514875 0.07442016 0.16480368 -0.02151069 0.17822818 -0.071913846 -0.036464687
-0.02656639 -0.022114307 -0.0025778168 -0.021074817 -0.099087566 0.16228521 -0.029624546 -0.042011667
-0.0141171105 -0.65293247 -0.10850406 -0.08711584 0.011706534 -0.07861531 0.06674425 -0.036071952
0.09288851 -0.017536445 0.16324206 0.17457002 0.08093726 0.0486295 -0.63415325 -0.00030647204
00000000: 8275 923c 353e b4bd 961d 4bbc 8702 7a3d
00000010: 191b 803c a4a1 90bf e569 37be 39af 21ba
00000020: 871c 8c3e bfff 57be 9529 4c3e edde 9a38
00000030: cb9c 883d fdd7 98bd 3607 1dbf 65c9 17bd
00000040: f6cd 913d 9066 2bbf 7d09 ea3d 53ff 373e
00000050: 9295 9abd 45fe fc3c e6bc fc3c 4d89 4abc
00000060: 41a3 623d 31fa 9a3d 486b 933d 55a7 c13d
00000070: 5a1b d13d 53fc cb3c 61af d4bd 8a66 033e
00000080: 236d 0a3e 6020 843d 9969 983d 4cc2 283e
00000090: 3037 b0bc 7381 363e 9147 93bd ff5b 15bd
000000a0: c2a1 d9bc 1029 b5bc 97f0 28bb 18a5 acbc
000000b0: 6cee cabd 182e 263e 2daf f2bc 6d14 2cbd
000000c0: 744b 67bc 9526 27bf 6037 debd ca69 b2bd
000000d0: c3cc 3f3c 1001 a1bd 36b1 883d 2fc0 13bd
000000e0: 553c be3d 97a8 8fbc ed28 273e 7cc2 323e
000000f0: 6fc2 a53d ba2f 473d de57 22bf fbad a0b9

weight f4 [128, 128]
0.19582959 0.17701884 0.12542966 -0.18327793 -0.24336457 0.0645582 -0.14631584 -0.11181
0.32695907 -0.119882934 -0.3611112 0.5006626 -0.3151581 -0.20282255 0.046452686 -0.4423208
-0.0950917 -0.021669872 -0.23811312 -0.3243507 0.34749416 0.41756845 -0.3623236 0.03307501
0.42367488 0.018696323 0.5185567 0.16173477 0.051491655 -0.05782366 -0.18785757 -0.09500023
0.12965995 0.23963302 0.26786557 -0.289927 0.27053323 -0.3033822 0.14306554 -0.109964326
-0.42286977 -0.1125516 0.20978735 -0.07277147 -0.06831929 -0.3615174 0.37728283 -0.061490472
0.48666137 -0.08862731 0.29339457 -0.11164012 -0.17544536 -0.5755929 0.24196352 0.0018882143
0.3201492 0.15184684 -0.16962944 -0.18377747 -0.31392694 0.27498212 -0.45598033 0.48885202
-0.32480165 0.45936978 -0.29909858 -0.4397922 -0.40239528 0.5283528 0.6503441 -0.22736663
-0.4256384 0.61741906 -0.5319641 -0.2658398 -0.5514177 0.49663144 0.58109045 0.3980292
-0.4468974 0.5168254 -0.48739633 -0.48795754 0.49442545 -0.38559344 -0.35273856 -0.09223641
-0.521744 -0.46962085 -0.57032865 -0.50459987 -0.4331332 -0.45081264 0.42468154 -0.43096122
-0.5160633 -0.5436044 -0.5137459 -0.51588404 -0.08781621 -0.53271884 0.45300293 0.27021453
0.06424463 -0.16058917 -0.36857894 -0.16449696 0.61428666 -0.5059088 0.11983438 0.4713388
-0.32836643 0.61592317 0.5459825 0.65875494 -0.3568216 0.574675 -0.6501695 0.1428389
-0.5287914 0.3221411 -0.5279185 -0.42111427 -0.4785654 -0.38065904 0.94241434 -0.24032377
0.20634224 0.16541587 0.10787733 -0.15325937 -0.15659834 -0.04080918 -0.06452086 -0.037458833
0.3090874 -0.075546406 -0.39451966 0.3938713 -0.38993472 -0.3111687 0.01328957 -0.39804733
-0.036672175 -0.034352362 -0.16661148 -0.38842797 0.32554322 0.4081153 -0.4054913 -0.030792827
0.40135977 0.06382308 0.5207869 0.11256149 -0.015575541 0.08180323 -0.14055604 -0.087650254
0.08252963 0.1704586 0.3150836 -0.32199705 0.26086858 -0.2768874 0.1696333 -0.12343962
-0.3885488 -0.10983977 0.21095404 -0.065351516 -0.071127005 -0.3364902 0.49210328 -0.046680417
0.54902244 -0.08362537 0.33308113 -0.10465441 -0.1116334 -0.5005544 0.20492515 0.029224025
0.39128312 0.13893205 -0.23549633 -0.12337712 -0.24184814 0.28956738 -0.3862696 0.50318027
-0.2990615 0.41712052 -0.25015017 -0.5282602 -0.275681 0.57595485 0.70914847 -0.13458744
-0.41765738 0.52322525 -0.4463751 -0.21322045 -0.5270425 0.51364845 0.61359304 0.4070263
-0.45444596 0.7441168 -0.47922528 -0.41261786 0.5155808 -0.47564122 -0.35176396 -0.09616855
-0.5680184 -0.49589667 -0.4410283 -0.57589793 -0.4185308 -0.5414342 0.4046604 -0.5348285
-0.52685153 -0.5552399 -0.4564393 -0.5309406 0.017788589 -0.62769824 0.44741666 0.33725458
0.10065017 -0.14986637 -0.36580995 -0.19692841 0.5723666 -0.43478838 0.088954516 0.32598197
-0.34402275 0.53793764 0.5440006 0.6180793 -0.36696574 0.5309032 -0.6587757 0.14337112
-0.54618055 0.2928753 -0.56228566 -0.5158299 -0.397506 -0.33390787 0.8917433 -0.29428428
00000000: 8d87 483e 6d44 353e a270 003e 36ad 3bbe
00000010: 9034 79be 1737 843d d2d3 15be a4fc e4bd
00000020: 2e67 a73e 2f85 f5bd 91e3 b8be 6d2b 003f
00000030: 675c a1be b7b0 4fbe 2c45 3e3d df77 e2be
00000040: 70bf c2bd 0485 b1bc edd3 73be 4c11 a6be
00000050: c1ea b13e 88cb d53e 7b82 b9be a979 073d
00000060: eaeb d83e 0829 993c 22c0 043f cd9d 253e
00000070: eae8 523d 81d8 6cbd bc5d 40be 7b8f c2bd
00000080: 94c5 043e 5c62 753e ad25 893e 5071 94be
00000090: 5583 8a3e e954 9bbe c67f 123e fa34 e1bd
000000a0: 6382 d8be 7481 e6bd 7fd2 563e 3509 95bd
000000b0: fcea 8bbd cf18 b9be 372b c13e 6fdd 7bbd
000000c0: ae2b f93e 3c82 b5bd d037 963e 93a3 e4bd
000000d0: f3a7 33be 0e5a 13bf 49c5 773e f57d f73a
000000e0: 99ea a33e bd7d 1b3e 57b3 2dbe 2930 3cbe
000000f0: 08bb a0be 75ca 8c3e 4176 e9be d04a fa3e
00000100: 674c a6be 8432 eb3e 7323 99be 712c e1be
00000110: c106 cebe 2142 073f f37c 263f ccd2 68be
00000120: 47ed d9be 2d0f 1e3f cd2e 08bf 271c 88be
00000130: b629 0dbf 7a46 fe3e 58c2 143f 7cca cb3e
00000140: bccf e4be ab4e 043f 038c f9be 92d5 f9be
00000150: 5525 fd3e 816c c5be 269a b4be 71e6 bcbd
00000160: 0491 05bf 2572 f0be 0f01 12bf 752d 01bf
00000170: a3c3 ddbe ead0 e6be dc6f d93e f3a6 dcbe
00000180: b91c 04bf a829 0bbf da84 03bf fa10 04bf
00000190: fcd8 b3bd 4360 08bf 00f0 e73e 8f59 8a3e
000001a0: b092 833d 7d71 24be 61b6 bcbe e471 28be
000001b0: e441 1d3f 3d83 01bf ba6b f53d 5253 f13e
000001c0: a51f a8be 24ad 1d3f 82c5 0b3f 2aa4 283f
000001d0: 52b1 b6be e71d 133f 8271 26bf 5c44 123e
000001e0: e05e 07bf aeef a43e ab25 07bf 4a9c d7be
000001f0: 8606 f5be bee5 c2be 1142 713f 6f17 76be
00000200: 614b 533e c762 293e caee dc3d 06f0 1cbe
00000210: 515b 20be 8727 27bd 8323 84bd 6f6e 19bd
00000220: b440 9e3e 13b8 9abd 7bfe c9be 80a9 c93e
00000230: 86a5 c7be 8151 9fbe 7fbc 593c dccc cbbe
00000240: 9035 16bd 10b5 0cbd 339c 2abe 08e0 c6be
00000250: 9aad a63e 7df4 d03e 8e9c cfbe 3d41 fcbc
00000260: 077f cd3e adb5 823d 4a52 053f a386 e63d
00000270: 8e30 7fbc 7488 a73d eced 0fbe fa81 b3bd
00000280: 4b05 a93d b38c 2e3e a352 a13e ccdc a4be
00000290: 9190 853e 2fc4 8dbe 5ab4 2d3e e9cd fcbd
000002a0: deef c6be acf3 e0bd 5604 583e 04d7 85bd
000002b0: 09ab 91bd 7248 acbe f6f4 fb3e f733 3fbd
000002c0: bc8c 0c3f c743 abbd 9c89 aa3e 0d55 d6bd
000002d0: 0da0 e4bd 5524 00bf e6d7 513e 3967 ef3c
000002e0: 4356 c83e 3444 0e3e f325 71be 25ad fcbd
000002f0: 0aa7 77be 2d42 943e 21c5 c5be 6cd0 003f
00000300: 971e 99be d290 d53e af13 80be 0f3c 07bf
00000310: 0f26 8dbe c771 133f c18a 353f 4ad1 09be
00000320: 30d7 d5be 17f2 053f 478b e4be 7656 5abe
00000330: 42ec 06bf 777e 033f 6f14 1d3f c065 d03e
00000340: 24ad e8be 707e 3e3f 045d f5be a642 d3be
00000350: 1afd 033f 3f87 f3be 681a b4be 04f4 c4bd
00000360: a769 11bf 2be6 fdbe 76ce e1be 0c6e 13bf
00000370: ab49 d6be 6f9b 0abf a62f cf3e 85ea 08bf
00000380: bedf 06bf 3424 0ebf 69b2 e9be b9eb 07bf
00000390: 60b9 913c d5b0 20bf cc13 e53e a2ac ac3e
000003a0: ad21 ce3d 9276 19be 714b bbbe 9aa7 49be
000003b0: 9e86 123f 959c debe c92d b63d 1ce7 a63e
000003c0: c023 b0be 48b6 093f a043 0b3f 723a 1e3f
000003d0: efe2 bbbe 46e9 073f 86a5 28bf e1cf 123e
000003e0: 7dd2 0bbf c0f3 953e f4f1 0fbf 6e0d 04bf
000003f0: e885 cbbe f9f5 aabe 4a49 643f 6eac 96be

bias f4 [128]
-0.36800846 -0.39407006 -0.48354822 -0.38865316 -0.5276579 -0.4651919 -0.4564384 -0.3914137
-0.43737045 -0.5237754 0.103633754 -0.43647608 -0.45132992 -0.41887307 -0.44528908 -0.38151905
-0.41537535 -0.5277839 -0.3600385 -0.53602844 -0.4070575 -0.43966976 -0.40935522 -0.36962062
-0.48774433 -0.4975819 -0.49787432 -0.41204074 -0.45553732 -0.4950738 -0.44412634 -0.40868264
0.5831993 -0.3418305 -0.39791837 -0.496215 -0.347552 -0.54326224 -0.28052694 0.12621471
-0.42662218 -0.4805525 -0.3767462 -0.42482024 0.0019630939 -0.40459558 -0.3118064 -0.5121026
-0.5310224 -0.42749605 -0.4847257 -0.3074052 -0.45598668 -0.45572343 -0.5143262 -0.43291873
-0.3935566 -0.42588222 0.43353617 -0.5394599 -0.45327136 -0.48189366 -0.48209763 -0.2760625
-0.44335768 -0.123952866 -0.25115585 -0.31560868 -0.3695825 -0.11397241 -0.25841624 -0.22139695
-0.29898706 -0.222465 -0.35710508 -0.26898122 -0.073694974 -0.34587446 -0.5836114 -0.4230987
-0.21421397 -0.27447906 0.06609508 -0.20561992 -0.12629327 -0.5367134 -0.43768114 -0.27482438
-0.46817404 -0.17233765 -0.30370328 -0.38500765 -0.51208186 -0.3696523 -0.4907739 -0.4044189
-0.45187017 0.4959924 -0.13662127 -0.19001168 0.42012644 0.33568662 0.09446112 -0.021232044
0.064652056 0.35590437 -0.34437358 -0.5902735 0.22158137 0.47809872 0.17949325 0.39755693
-0.16609012 -0.25941715 0.27427822 0.27424213 0.35820597 0.091383316 -0.6347345 -0.025713382
-0.50177175 0.06873382 -0.446325 -0.44656727 -0.39697912 -0.41517916 -0.5320437 -0.37657076
00000000: 9b6b bcbe 8dc3 c9be a293 f7be 8cfd c6be
00000010: 9714 07bf a22d eebe 4bb2 e9be 6067 c8be
00000020: 05ef dfbe 2516 06bf ef3d d43d cb79 dfbe
00000030: b714 e7be 8876 d6be eefc e3be 7756 c3be
00000040: 14ac d4be d81c 07bf f756 b8be 2939 09bf
00000050: d769 d0be 651c e1be 0297 d1be ea3e bdbe
00000060: a0b9 f9be 0ec3 febe 62e9 febe 01f7 d2be
00000070: 303c e9be 507a fdbe 8764 e3be da3e d1be
00000080: 8d4c 153f 6804 afbe f5bb cbbe e40f febe
00000090: 56f2 b1be 3c13 0bbf 3aa1 8fbe 6e3e 013e
000000a0: 396e dabe fa0a f6be e1e4 c0be 0a82 d9be
000000b0: 40a7 003b 2727 cfbe 17a5 9fbe 2819 03bf
000000c0: 16f1 07bf c3e0 dabe f82d f8be 3764 9dbe
000000d0: 1677 e9be 9554 e9be e2aa 03bf 86a7 ddbe
000000e0: 4080 c9be 3c0d dabe 74f8 dd3e 0b1a 0abf
000000f0: 2f13 e8be c4ba f6be 80d5 f6be 1058 8dbe
00000100: c7ff e2be 00db fdbd 8097 80be 7697 a1be
00000110: eb39 bdbe 5e6a e9bd 224f 84be e2b5 62be
00000120: d514 99be ddcd 63be 7ad6 b6be e8b7 89be
00000130: 64ed 96bd 7516 b1be 8f67 15bf 65a0 d8be
00000140: e85a 5bbe 8588 8cbe db5c 873d 078e 52be
00000150: 0653 01be 0d66 09bf be17 e0be c8b5 8cbe
00000160: 82b4 efbe 4879 30be ff7e 9bbe b91f c5be
00000170: cc17 03bf 1143 bdbe b746 fbbe fe0f cfbe
00000180: 875b e7be b7f2 fd3e 72e6 0bbe 6c92 42be
00000190: d01a d73e 1edf ab3e d574 c13d d3ee adbc
000001a0: 4c68 843d 1939 b63e bc51 b0be 2a1c 17bf
000001b0: 3ae6 623e 5bc9 f43e 14cd 373e 958c cb3e
000001c0: 8713 2abe 53d2 84be 326e 8c3e 7769 8c3e
000001d0: c666 b73e 2d27 bb3d f67d 22bf dfa4 d2bc
000001e0: 1d74 00bf 51c4 8c3d b684 e4be 77a4 e4be
000001f0: d940 cbbe 5d92 d4be 0434 08bf e2cd c0be

weight f4 [128, 64]
0.016676873 -0.13165589 0.014757687 -0.09386871 -0.036111332 -0.058889046 -0.025348581 -0.05298243
-0.036649227 -0.12215202 -0.054127034 0.021553053 -0.06731951 -0.05431056 0.04739663 0.073920585
0.035617605 0.039692603 0.033621736 -0.0027519325 0.07360159 -0.015324479 -0.05358607 -0.046688266
-0.02473956 -0.07398464 0.00684712 0.037035376 -0.04670325 -0.052447714 0.016605688 -0.08210401
-0.04102797 -0.00023513679 -0.056980237 -0.092932016 -0.09700744 -0.075602375 0.10952038 -0.050982915
-0.018496064 0.0818191 0.12681873 -0.014333931 0.029169085 -0.018607687 -0.06551538 -0.047754392
0.015696008 -0.10493802 0.17960006 0.031180033 0.09401646 0.05909253 0.08399271 0.049417175
0.022233346 -0.120584324 0.048710525 -0.06457852 0.031383816 0.0464615 0.0371827 -0.045197204
0.06737444 0.00080304896 -0.02128337 -0.0801084 0.042824283 -0.026106462 0.016160138 -0.0684956
0.0016934448 -0.06525031 0.047808517 0.05144397 0.018842893 -0.026266977 0.0057256487 -0.0057496745
0.04850975 -0.022141267 -0.09349466 -0.032195628 -0.014359583 -0.026897354 -0.0152085135 0.07398003
0.0077181384 -0.024810536 -0.041737873 -0.022967817 0.050570738 0.013555951 0.025325712 0.08636267
-0.029957894 0.02113543 -0.014084364 -0.007272466 0.08256071 0.072117835 0.0032517554 0.00096006726
-0.0030867138 -0.06654422 0.020265901 0.01522914 0.02038127 0.010196094 -0.0015337775 -0.008612936
-0.0336553 -0.002263666 -0.06404475 -0.033070702 -0.10220277 0.044604056 0.0877982 0.060608156
0.0025127684 0.030383812 -0.0651331 -0.02970809 0.024505032 -0.06500363 0.037389643 0.027664993
-0.033838097 0.047817342 -0.049797125 0.039557096 -0.0076708337 0.037815638 0.012089415 -0.04570182
-0.08197594 0.053854838 0.031102624 -0.01790413 -0.0036476194 -0.0067757913 -0.026017936 -0.011442788
-0.07752161 -0.006083628 0.09130899 -0.0605216 -0.055858318 -0.071369335 -0.0736616 -0.06415365
0.113713026 0.08950234 0.014639955 -0.016212001 0.034417 0.0074456176 -0.017268872 -0.02895069
-0.025560277 -0.06914864 0.0835307 -0.047948975 0.05871954 -0.007344854 0.08710416 -0.061130732
0.0011988966 0.009360948 -0.022337796 -0.05995574 0.050070584 0.0642357 0.031683743 0.048137687
0.011674584 -0.033601165 -0.019265696 0.009345581 0.08384901 0.014065617 -0.0058389665 -0.019316211
0.033830263 0.08031053 -0.026900737 -0.0277395 -0.03378613 -0.037598915 -0.0027840505 0.008744503
0.01737464 -0.008991111 -0.021312699 0.012248267 0.07106102 0.0931954 0.016615208 0.2870884
-0.028131716 0.0028516164 -0.048379604 0.033171438 -0.06391637 0.007202208 -0.06880975 0.059995882
0.0075543774 -0.09487032 -0.0629881 0.04913365 0.023430254 0.03165883 0.10521455 -0.12214916
-0.065142825 -0.035618566 0.02444436 -0.0068614893 0.06002387 0.07854682 0.071289085 0.01831718
0.008812572 0.013745123 0.005189804 0.04607478 -0.058595736 -0.048068993 -0.07577619 0.01994716
0.06630328 -0.038653694 0.016907737 -0.00081285485 -0.059147764 0.021277688 0.0049645584 -0.10169969
0.023749856 0.019760666 -0.08936138 -0.028714038 -0.026989197 0.042837415 -0.0054997434 -0.09094487
-0.0032218094 0.1394153 0.01818056 -0.03680384 -0.036507003 -0.01842897 0.075270995 0.04997935
00000000: f09d 883c cdd0 06be 3aca 713c 3d3e c0bd
00000010: 7ae9 13bd a435 71bd d4a7 cfbc 1b04 59bd
00000020: 801d 16bd d72a fabd 4fb4 5dbd 0790 b03c
00000030: d0de 89bd c074 5ebd f822 423d ad63 973d
00000040: c4e3 113d b694 223d f2b6 093d c459 34bb
00000050: 6ebc 963d 8613 7bbc 117d 5bbd 323c 3fbd
00000060: 9eaa cabc 4285 97bd ce5d e03b 68b2 173d
00000070: e84b 3fbd 6ad3 56bd a708 883c 2626 a8bd
00000080: f20c 28bd 0d8f 76b9 1c64 69bd 2453 bebd
00000090: d6ab c6bd 6bd5 9abd 394c e03d 76d3 50bd
000000a0: 0f85 97bc c690 a73d c5dc 013e ddd8 6abc
000000b0: 01f4 ee3c 266f 98bc ed2c 86bd 1c9a 43bd
000000c0: ea94 803c bfe9 d6bd 14e9 373e 456d ff3c
000000d0: b48b c03d 020b 723d 5f04 ac3d aa69 4a3d
000000e0: b522 b63c eaf4 f6bd b084 473d be41 84bd
000000f0: 518c 003d 6a4e 3e3d e34c 183d b420 39bd
00000100: 9cfb 893d b483 523a 765a aebc df0f a4bd
00000110: 8468 2f3d 38dd d5bc 4462 843c 6c47 8cbd
00000120: 94f6 dd3a f4a1 85bd ddd2 433d eab6 523d
00000130: 695c 9a3c d82d d7bc 399e bb3b c467 bcbb
00000140: 29b2 463d 9a61 b5bc 217a bfbd 90df 03bd
00000150: 7544 6bbc d757 dcbc 212d 79bc d882 973d
00000160: 70e8 fc3b 773f cbbc 55f5 2abd 0127 bcbc
00000170: 4323 4f3d c819 5e3c de77 cf3c e9de b03d
00000180: 426a f5bc 3624 ad3c 1bc2 66bc de4d eebb
00000190: 9715 a93d 84b2 933d 671b 553b 06ad 7b3a
000001a0: 774a 4abb 5648 88bd ad04 a63c a583 793c
000001b0: 9ff6 a63c 850d 273c 0809 c9ba 461d 0dbc
000001c0: 24da 09bd 035a 14bb e529 83bd 2575 07bd
000001d0: b04f d1bd beb2 363d 8bcf b33d 4240 783d
000001e0: 42ad 243b 79e7 f83c 8164 85bd 615e f3bc
000001f0: c7be c83c a020 85bd e225 193d b2a1 e23c
00000200: d199 0abd 1edc 433d 12f8 4bbd 9f06 223d
00000210: 9e5b fbbb 92e4 1a3d af12 463c d531 3bbd
00000220: 00e3 a7bd e496 5c3d eeca fe3c afab 92bc
00000230: e60c 6fbb 7507 debb 9123 d5bc 887a 3bbc
00000240: a6c3 9ebd 2c59 c7bb 3500 bb3d 7fe5 77bd
00000250: b1cb 64bd 162a 92bd e5db 96bd fd62 83bd
00000260: 60e2 e83d 014d b73d 6cdc 6f3c 08cf 84bc
00000270: d7f8 0c3d 5efa f33b 7377 8dbc ff29 edbc
00000280: c963 d1bc cd9d 8dbd 2512 ab3d 2566 44bd
00000290: e683 703d 1aad f0bb aa63 b23d 3864 7abd
000002a0: 4b24 9d3a a95e 193c c1fd b6bc 2694 75bd
000002b0: d016 4d3d 028e 833d d0c6 013d 062c 453d
000002c0: c146 3f3c 60a1 09bd 18d3 9dbc 351e 193c
000002d0: 08b9 ab3d 7973 663c cd54 bfbb 083d 9ebc
000002e0: 9a91 0a3d d979 a43d ef5e dcbc f33d e3bc
000002f0: 5363 0abd 5201 1abd 9e74 36bb 1b45 0f3c
00000300: 4355 8e3c 744f 13bc f897 aebc f5ac 483c
00000310: 7188 913d 3bdd be3d 9e1c 883c 40fd 923e
00000320: 7c74 e6bc 2fe2 3a3b b129 46bd c6de 073d
00000330: 96e6 82bd 8000 ec3b 20ec 8cbd 3ebe 753d
00000340: b68a f73b 5f4b c2bd e8ff 80bd 5e40 493d
00000350: cef0 bf3c b0ac 013d ba7a d73d 5729 fabd
00000360: 9a69 85bd c6e4 11bd 8a3f c83c 58d6 e0bb
00000370: 97db 753d 28dd a03d 0300 923d e90d 963c
00000380: 9b62 103c 3933 613c 3b0f aa3b e9b8 3c3d
00000390: 1502 70bd fee3 44bd 8c30 9bbd 3a68 a33c
000003a0: 04ca 873d 5653 1ebd 1882 8a3c c415 55ba
000003b0: ed44 72bd 8c4e ae3c bcad a23b ed47 d0bd
000003c0: 0f8f c23c 1fe1 a13c 1903 b7bd b439 ebbc
000003d0: 7318 ddbc 4976 2f3d 3137 b4bb 4e41 babd
000003e0: fe24 53bb e2c2 0e3e 66ef 943c a0bf 16bd
000003f0: 5e88 15bd 5af8 96bc ae27 9a3d 26b7 4c3d
