VariationalRecurrentNeuralNetwork-master/saves/vrnn_state_dict_91.pth (torch_old, 753803 bytes, 30 tensors)

phi_x.0.weight f4 [100, 28]
0	0x3e44560d	0.19173451
1	0xbe074a89	-0.13212027
2	0xbe7a715e	-0.24457309
3	0xbde2de1e	-0.11077522
4	0xbc290805	-0.010316853
5	0xbc645f13	-0.013938683
6	0x3ccdae02	0.025107387
7	0xbb675d95	-0.0035303582
8	0xbabab696	-0.0014245089
9	0x3ca00845	0.019535193
10	0xbc57dfa5	-0.01317588
11	0x3c783e8a	0.015151629
12	0xba9e701d	-0.0012087856
13	0xbd450257	-0.048097935
14	0x3d98e4c5	0.07465509
15	0xbc74fd12	-0.014952915
16	0xbd01595a	-0.031579353
17	0x3cf0e6ca	0.029406924
18	0x3bfc5d23	0.0077015324
19	0xbc8d4053	-0.017242586
20	0x3e1c3814	0.15255767
21	0xbd0a8c88	-0.033825427
22	0xbe9b5067	-0.3033478
23	0xc14c41e6	-12.7660885
24	0xc0e76ed6	-7.23228
25	0xc0cb75f7	-6.35815
26	0xbf38244c	-0.71930385
27	0xbfd32c04	-1.6497808
28	0x3e68c282	0.22730449
29	0x3d8ee2da	0.06976862
30	0x3d4d1860	0.050072074
31	0xbd0bd951	-0.034142796
32	0x3c451783	0.012029531
33	0x3bdc3868	0.0067205913
34	0xbbf28d09	-0.0074020666
35	0xbbc554e0	-0.006022081
36	0xbb2f15c6	-0.002671586
37	0x3bb3c69a	0.0054863216
38	0xbad23587	-0.0016037681
39	0xbd2aabd5	-0.041667778
40	0x3ea6e58f	0.32597014
41	0xbe76f2e4	-0.24116093
42	0xc1304e5e	-11.019133
43	0xbe1c6836	-0.15274128
44	0x3e869391	0.2628446
45	0xbc597a79	-0.013273829
46	0xbd8e8284	-0.06958488
47	0xbcacb54b	-0.021082541
48	0xbc97310f	-0.01845601
49	0xbd2069a4	-0.039163247
50	0x3d0d0fc1	0.034438852
51	0xbd8460a4	-0.06463745
52	0x3c749a1a	0.014929319
53	0xbf0011d3	-0.500272
54	0x3e17c6a8	0.14821875
55	0xbf196b52	-0.5992938
56	0xbf3af3b3	-0.73028105
57	0x3efb013d	0.49024382
58	0xbe909f1e	-0.28246397
59	0x3d016f2a	0.031600155
60	0x3c3a321e	0.011364488
61	0xbd20dd39	-0.039273474
62	0x3d65f4cc	0.05614166
63	0xbcd4dad8	-0.02598326
64	0x3bdfa322	0.006824867
65	0xbb3558d8	-0.0027671363
66	0x3beb0bbf	0.007173031
67	0xba627091	-0.00086379895
68	0x3d8af3de	0.06784795
69	0xbd6d8781	-0.057990555
70	0xbdacf402	-0.08444978
71	0x3edd00df	0.43164727
72	0xbe77cd53	-0.24199419
73	0xbd5f31c6	-0.054490827
74	0x3ca561c4	0.02018822
75	0xbc684849	-0.01417739
76	0xbdce6d15	-0.100793995
77	0xbf0ad238	-0.5422702
78	0xbed3b3f5	-0.41348234
79	0x3f14f742	0.58189785
80	0x3f1cafdc	0.6120584
81	0x3f285870	0.65759945
82	0x3eb4fa70	0.3534732
83	0xbc8b6815	-0.017017404
84	0x3d3d638e	0.04623752
85	0x3ec1045f	0.37698647
86	0xbd30ec0f	-0.043193873
87	0x3b9557fa	0.0045576068
88	0xbd2f444d	-0.042789746
89	0x3ce09e41	0.027419211
90	0x3a0bb7e8	0.00053298334
91	0xbc154f05	-0.009113078
92	0xbb8a362f	-0.004217885
93	0x3a9ab412	0.0011802933
94	0x3ac839b6	0.0015275988
95	0xbb9be605	-0.004757645
96	0x3bf84322	0.007576362
97	0xbc04909c	-0.008091118
98	0xbc33349d	-0.010937837
99	0xbca15b30	-0.019696802
100	0x3d251c42	0.040310152
101	0xbdbcac77	-0.092125826
102	0x3d2cb269	0.042162333
103	0x3eb677f8	0.35638404
104	0xbee9d1f1	-0.45667985
105	0xc0bb8208	-5.859623
106	0xc0f871c9	-7.76389
107	0xc0e2d2a2	-7.088212
108	0xc0cca293	-6.3948455
109	0xc0c2fe72	-6.09356
110	0xc022f306	-2.546083
111	0xc02d730e	-2.7101474
112	0x3dae3afd	0.08507345
113	0xbe0cb312	-0.13740185
114	0x3dc38d0e	0.095483884
115	0x3dd15de4	0.10222986
116	0xbbc4a6d7	-0.006001334
117	0xbcf20ac9	-0.029546158
118	0x3c8d60f5	0.017258147
119	0xbd7d76e4	-0.06188096
120	0xbd4f6c26	-0.050640248
121	0x3cf4d941	0.029888751
122	0x3d70fed2	0.058836766
123	0x3d3d8c4f	0.046276387
124	0xbd2f8d5f	-0.04285943
125	0x3d1e743c	0.03868507
126	0xbda64c36	-0.08120005
127	0x3c679386	0.014134293
128	0xbdde7790	-0.108626485
129	0x3dc50106	0.09619336
130	0xbd9839ac	-0.07432875
131	0xbdd64993	-0.10463252
132	0x3dcda114	0.10040489
133	0x3e8c9fb4	0.27465594
134	0x3d67a08d	0.056549598
135	0x3e50b4e6	0.20381507
136	0x3d4dcc55	0.050243694
137	0xbed2bcc0	-0.4115963
138	0xbf1cf3f5	-0.6130975
139	0x3f1efd59	0.6210533
140	0x3e12ae77	0.14324366
141	0x3e34ff1d	0.17675443
142	0xbd3f60a5	-0.046723027
143	0x3da5a916	0.08088891
144	0xbc605efd	-0.013694522
145	0x3d1580c7	0.036499765
146	0x3d382dc5	0.044965524
147	0xbb60303e	-0.0034208442
148	0x3c20f0c0	0.009823024
149	0x3b6d9334	0.003625107
150	0x3c5d610a	0.013511905
151	0x39947a79	0.0002832001
152	0xbc89b432	-0.016809557
153	0xbbd43753	-0.0064763217
154	0x3c40cfc0	0.011768281
155	0x3c84616a	0.016159732
156	0xbe6aa7c1	-0.22915556
157	0x3e84ce5b	0.25938687
158	0x3e80fe4d	0.25194016
159	0xbeb95959	-0.3620098
160	0xc0d4ee06	-6.6540556
161	0xc0bf06d7	-5.969585
162	0xc08d5820	-4.4170074
163	0xc0466034	-3.0996218
164	0xc07f2811	-3.9868205
165	0xc018734d	-2.3820374
166	0x3f082ab2	0.5319015
167	0xbd0d24a6	-0.03445878
168	0xbcd1f9a9	-0.025631743
169	0xbea75310	-0.3268056
170	0xbdf771a6	-0.120822236
171	0x3daa5d8c	0.08318624
172	0x3bbf65ed	0.005841008
173	0xbd7e4a23	-0.06208242
174	0x3d87df49	0.06634385
175	0x3d83813c	0.06421134
176	0x3b6d2fe4	0.0036191875
177	0xbcd5e590	-0.02611044
178	0xbce64ce1	-0.02811283
179	0x3d828873	0.06373682
180	0xbe009bf9	-0.12559499
181	0x3df395fd	0.11893842
182	0xbc9d6ae6	-0.019216012
183	0x3baf25a3	0.005345063
184	0x3d79e3fa	0.06100843
185	0xbdb2c8d1	-0.08729709
186	0x3db22d45	0.08700041
187	0x3e426136	0.18982396
188	0x3d2d613b	0.042329054
189	0x3d90e5dc	0.07075092
190	0xbd1cd055	-0.03828462
191	0x3d86e286	0.06586175
192	0xbd513efd	-0.05108546
193	0x3b82fa2e	0.003997109
194	0x3c4c2abc	0.012461361
195	0x3cc2da1c	0.023785643
196	0xbf1a51cb	-0.60281056
197	0x3ebdca1f	0.3706827
198	0x3bc50bc5	0.006013366
199	0x3e49cb3f	0.19706438
200	0xbdbbb5d1	-0.09165538
201	0x3b049ff4	0.002023694
202	0xbc8525e5	-0.016253421
203	0x3d181926	0.03713336
204	0x3aef6f55	0.0018267432
205	0xbafc1743	-0.0019233007
206	0xbd84ac09	-0.064781256
207	0x3cc52fcd	0.024070645
208	0x3ce122e8	0.027482465
209	0xbd5a193b	-0.053246718
210	0xbeaf20ed	-0.34204808
211	0xc0bcd039	-5.900418
212	0xc08b4479	-4.3521085
213	0xbfe751db	-1.8071855
214	0xbf9d7db2	-1.2303984
215	0xbef1e515	-0.47245088
216	0xbe9e8a10	-0.30964708
217	0xbeb76ea3	-0.35826597
218	0xbe882094	-0.26587355
219	0x3d776e5b	0.060407978
220	0x3d0caf59	0.034346912
221	0x3d1d5311	0.038409296
222	0x3e1e674c	0.15469092
223	0x3e7f7cf1	0.24950005
224	0xbf215557	-0.63020843
225	0xbda5eb52	-0.081015244
226	0x3cea16aa	0.02857526
227	0x3a69388f	0.00088966725
228	0x3cab5e39	0.020918952
229	0xbc6b594f	-0.014364555
230	0x3cb23b32	0.021756742
231	0xba401098	-0.00073266914
232	0xbcb6e3e8	-0.022325471
233	0xbc01c6e1	-0.007920952
234	0xbd0eef0a	-0.034895934
235	0x3b3c711b	0.002875394
236	0x3d9a3f4d	0.07531605
237	0xbdf72f10	-0.12069523
238	0xbf5c6e5d	-0.861059
239	0xc11f190c	-9.943615
240	0xc0c48a7d	-6.1419053
241	0xbe4483bf	-0.19190882
242	0x3dd33f45	0.10314802
243	0xbcc3eb4a	-0.023915906
244	0xbbff9064	-0.007799195
245	0xbc4b3149	-0.012401887
246	0xbc3ac05c	-0.011398401
247	0x3cb4faec	0.022092305
248	0x3cb83315	0.022485295
249	0x3ae19c4c	0.0017212718
250	0xbd4bcae4	-0.04975404
251	0x3e2b2044	0.16711527
252	0x3d4b9ec8	0.049711972
253	0xbafe4ca0	-0.0019401498
254	0xbe554e3e	-0.20830628
255	0x3d500e5b	0.05079494

phi_x.0.bias f4 [100]
0	0x3e6e8f2c	0.23296803
1	0x3d554d29	0.05207554
2	0xbd24e7ec	-0.04026024
3	0x3e1ed664	0.15511471
4	0x3e228748	0.15871918
5	0xbcafc196	-0.021454614
6	0x3cabdf23	0.020980423
7	0x3e3d2c9c	0.18474048
8	0x3e55de8d	0.20885678
9	0x3d2d81c5	0.042360086
10	0x3e162e4d	0.146661
11	0x3d2704a8	0.040775925
12	0xbc8beaa9	-0.017079668
13	0x3e8694b3	0.26285324
14	0x3eae77fd	0.3407592
15	0x3e6bbd0b	0.23021333
16	0xbc3dcf12	-0.011585014
17	0xbd0868a2	-0.03330291
18	0x3dade487	0.08490854
19	0x3df3a654	0.11896959
20	0x3ec17201	0.3778229
21	0x3d4cbf75	0.049987275
22	0x3dd808f7	0.10548585
23	0x3ddfd72f	0.10929715
24	0x3e8a9694	0.27068007
25	0x3d99e37f	0.075140946
26	0x3e5b0a6e	0.21390697
27	0x3db964a9	0.090524025
28	0x3e88b486	0.26700228
29	0x3ea063af	0.31326053
30	0xbbfddf3b	-0.0077475584
31	0x3d4c043a	0.04980872
32	0x3e35d024	0.1775518
33	0x3d1e2b89	0.038615737
34	0xbc02b83f	-0.007978498
35	0xbe050f33	-0.1299408
36	0x3be740dc	0.0070572924
37	0xbd804b25	-0.06264333
38	0x3d95aa33	0.073078535
39	0x3db8f1df	0.09030508
40	0xbb67a32c	-0.003534506
41	0x3d20f2d2	0.03929407
42	0x3cc5c6f9	0.02414273
43	0xbe04aadc	-0.12955803
44	0x3e48e0ef	0.19617055
45	0x3e163378	0.14668071
46	0x3e4acd28	0.19804823
47	0xbae1e3b9	-0.0017234004
48	0x3b844834	0.0040369276
49	0x3d3f4437	0.046695914
50	0x3b909e7f	0.0044134255
51	0x3caa1048	0.020759717
52	0x3cb59b05	0.022168646
53	0xbc87ff58	-0.01660125
54	0x3db0c9be	0.08632229
55	0x3d219474	0.039448217
56	0x3e11ac2e	0.14225838
57	0x3e0d8417	0.1381992
58	0x3e58227b	0.21106903
59	0x3e010477	0.1259936
60	0x3c1f3a06	0.009718424
61	0x3e1f2d43	0.1554461
62	0x3e10ae57	0.14129005
63	0x3caeac03	0.021322256
64	0x3e05b76f	0.13058256
65	0x3e2ed037	0.17071615
66	0x3e5c92fe	0.21540448
67	0x3df88db0	0.121364
68	0x3dece3a1	0.11566854
69	0x3e3015d4	0.17195827
70	0x3e25b70f	0.16183113
71	0x3bd1c897	0.006402086
72	0xbeb37403	-0.35049447
73	0xbbc82575	-0.006107981
74	0x3e14f693	0.14547186
75	0x3e2ec5ea	0.17067686
76	0x3e51144a	0.20417896
77	0x3e542891	0.207186
78	0x3d8a0376	0.06738941
79	0xbaf26c15	-0.0018495346
80	0x3e64ade5	0.2233196
81	0x3e01204c	0.12609977
82	0x3d8c57de	0.06852697
83	0x3c0de251	0.008659915
84	0x3d82d503	0.06388285
85	0x3cf5e01e	0.030014094
86	0x3e3289cc	0.17435378
87	0x3e7ac1a6	0.24487934
88	0x3d70216b	0.05862562
89	0x3e1ecf57	0.15508781
90	0xbdc1db90	-0.09465706
91	0x3b516801	0.003195286
92	0x3e9cc252	0.30617005
93	0xbb48069f	-0.0030521525
94	0x3e80ae6d	0.25133076
95	0xbeaf3d6e	-0.34226555
96	0xbe156858	-0.14590585
97	0x3dfb7cb7	0.12279647
98	0x3e609bcb	0.2193443
99	0x3d6bdc1c	0.05758296

phi_x.2.weight f4 [100, 100]
0	0xbd2fad42	-0.04288984
1	0x3ed11d73	0.4084278
2	0x3dda4012	0.10656752
3	0x3d0ddb93	0.03463323
4	0x3c54e978	0.012995116
5	0x3d3cc783	0.046088707
6	0xbcf86f83	-0.03032661
7	0x3e20b9a9	0.15695824
8	0x3f006c56	0.5016531
9	0x3c924c70	0.017858714
10	0x3d9b6eb3	0.075894736
11	0xbe463575	-0.1935633
12	0x3e57cca1	0.21074153
13	0x3db93099	0.090424724
14	0x3e0bc68b	0.13649957
15	0x3e9efca5	0.31052127
16	0x3a7b5cc7	0.0009588715
17	0x3e012d12	0.12614849
18	0x3c1297b8	0.008947305
19	0x3ed81020	0.42199802
20	0x3c27b868	0.010236837
21	0xbdf2e419	-0.118599124
22	0x3e8e86f3	0.27837333
23	0xbe52ef4e	-0.205991
24	0xbe0882ac	-0.13331097
25	0xbe9fe759	-0.31231192
26	0x3e0669a4	0.13126236
27	0xbea83799	-0.32854918
28	0x3e3d07ba	0.18459979
29	0x3d81a9c0	0.06331205
30	0x3e2f7c26	0.17137203
31	0xbe18cc9a	-0.149218
32	0x3ce2adac	0.027670704
33	0xbc96b4e7	-0.018396808
34	0x3acf2e99	0.0015806734
35	0x3cec0c66	0.028814506
36	0x3e28d9f8	0.16489398
37	0xbd69f49f	-0.057118054
38	0x3e750944	0.23929316
39	0x3ec13d86	0.3774225
40	0x3e36f47c	0.17866701
41	0xbd99951f	-0.07499146
42	0xbe07d15e	-0.13263461
43	0xbd97584b	-0.073898874
44	0x3ee7c9e1	0.4527121
45	0x3f1f9bae	0.62346923
46	0x3e2dd086	0.16974077
47	0xbcb963a7	-0.022630526
48	0xbd498f82	-0.049209125
49	0x3d16a4a3	0.036778104
50	0xbd98c7ac	-0.074599594
51	0x3d9b742f	0.0759052
52	0x3da43bce	0.08019219
53	0x3e4a3044	0.19744974
54	0x3ce8084d	0.02832427
55	0xbe56158a	-0.20906654
56	0x3d356410	0.04428488
57	0x3d421b7b	0.04738949
58	0x3e771f5c	0.24133056
59	0x3e2b5f1f	0.16735505
60	0xbdd1b287	-0.102391295
61	0xbe26ffd7	-0.16308533
62	0xbac5e70a	-0.0015098762
63	0xbe05e7f4	-0.13076764
64	0x3c3e168f	0.011602058
65	0xbc67c04b	-0.014144967
66	0x3d0eb4c4	0.03484036
67	0xbe06153a	-0.13094035
68	0x3c57c0a2	0.013168486
69	0xbe4fd638	-0.20296562
70	0x3e959565	0.2921554
71	0x3d82b1d8	0.06381577
72	0x3ecf4442	0.40481764
73	0x3e263cf0	0.16234183
74	0xbe4d62b2	-0.2005718
75	0x3cf2f2f4	0.029656865
76	0x3cfd6b5c	0.030934982
77	0x3e87373f	0.26409337
78	0xbc6b570e	-0.014364017
79	0x3e1965a8	0.14980185
80	0x3d698dfb	0.05702017
81	0xbe71198b	-0.235449
82	0xba8b4c27	-0.0010627554
83	0xbd900e5c	-0.07033989
84	0x3df678f2	0.12034787
85	0x3e4f202e	0.2022712
86	0x3eb1859e	0.34672254
87	0xbd19b6df	-0.037527915
88	0xbeb55863	-0.35418996
89	0x3e546b6d	0.20744105
90	0xbec19d03	-0.37815103
91	0xbdf85d0b	-0.121271215
92	0x3d8aa6e0	0.0677011
93	0xbc11181a	-0.008855844
94	0xbe4a768f	-0.19771789
95	0x3e2fcc34	0.17167741
96	0x3ce98979	0.028507935
97	0xbdb430bf	-0.0879836
98	0xbd98c351	-0.07459129
99	0xbc1be7ec	-0.009515744
100	0xbda63e08	-0.081173
101	0x3e80d3da	0.2516163
102	0xbdf3a9a8	-0.11897594
103	0x3e352469	0.1768967
104	0x3d0e07d3	0.03467543
105	0x3ccb40f1	0.02481124
106	0xbe8bb0a5	-0.27283207
107	0x3f083715	0.5320905
108	0x3ec33977	0.3812978
109	0xbe5d367c	-0.21602815
110	0xbe9b6314	-0.30349028
111	0xbe03c676	-0.12868676
112	0xbc819e64	-0.015822597
113	0x3cf42210	0.029801399
114	0x3ce3ca8f	0.027806548
115	0x3e127872	0.14303759
116	0xbde950a7	-0.11392336
117	0x3e612c9a	0.2198967
118	0xbd41817b	-0.047242623
119	0xbc8cac2a	-0.017171938
120	0xbcac7fc9	-0.021057026
121	0xbe1b6ba5	-0.15177782
122	0x3e8f3f38	0.2797792
123	0xbf01df0b	-0.5073096
124	0x3cfb022a	0.03064068
125	0xbeba7e05	-0.3642427
126	0x3dbc7004	0.09201053
127	0x3df8419f	0.12121891
128	0xbc1c8b6c	-0.009554725
129	0x3decde86	0.115658805
130	0xbdb6fca4	-0.08934906
131	0xbebfd257	-0.37465164
132	0xbd1d5a7d	-0.038416374
133	0xbf099ce4	-0.5375502
134	0xbe833ea6	-0.25633734
135	0xbf85ce1b	-1.0453523
136	0xbc02074b	-0.007936309
137	0xbd923096	-0.07138173
138	0x3e42df4f	0.19030498
139	0x3e06de0d	0.13170643
140	0x3cc3f619	0.02392106
141	0x3de3d9f4	0.11125556
142	0x3e943e2a	0.28953677
143	0xbe1a0325	-0.15040262
144	0x3e4de86e	0.20108196
145	0x3de8200c	0.113342375
146	0x3e471078	0.19439876
147	0xbdc8ab5f	-0.097983114
148	0xbd2c158e	-0.042012744
149	0xbda295f2	-0.07938756
150	0x3dfbe986	0.123004004
151	0x3d81161f	0.063030474
152	0xbf4d8bb1	-0.8029128
153	0x3eeb6f90	0.45983553
154	0xbdc22efc	-0.09481618
155	0xbe0a9b26	-0.13535747
156	0x3eec305b	0.46130642
157	0xbe28b971	-0.1647699
158	0xbeff8e92	-0.4991346
159	0x3d89766a	0.06712039
160	0x3deb6ec3	0.114957355
161	0xbd9be04a	-0.07611139
162	0xbdd35e29	-0.10320694
163	0xbd87017c	-0.0659208
164	0xbe874960	-0.26423168
165	0xbd836e97	-0.06417578
166	0x3eb12ecb	0.34606013
167	0xbcf10102	-0.029419426
168	0x3e512ff3	0.20428447
169	0x3e84530c	0.2584461
170	0x3efc6c22	0.4930125
171	0x3bbce001	0.005764008
172	0xbe698094	-0.22802955
173	0x3bd1c45d	0.006401582
174	0xbd2c7052	-0.042099304
175	0x3ebf44cf	0.37357184
176	0x3d6a3926	0.057183407
177	0x3eb78049	0.3584006
178	0xbe9e228b	-0.3088573
179	0xbe916401	-0.2839661
180	0x3e9c08a7	0.3047535
181	0xbe1d5c18	-0.15367162
182	0xbd0c14d0	-0.034199536
183	0xbe3dc8a0	-0.18533564
184	0xbeec03bf	-0.46096608
185	0xbdb50ceb	-0.088403545
186	0xbdfc9751	-0.12333549
187	0x3eec5724	0.46160233
188	0xbe840f3d	-0.25792876
189	0xbdd80aef	-0.105489604
190	0xbe574a0c	-0.2102434
191	0xbf0c26a5	-0.54746467
192	0x3da16c58	0.07881993
193	0x3e881e1d	0.26585475
194	0x3cf36955	0.029713312
195	0xbed41ede	-0.414298
196	0xbeab7a6f	-0.33491847
197	0xbe93086a	-0.28717357
198	0x3d6c2cf9	0.057660077
199	0x3e9be12c	0.3044523
200	0xbc14b082	-0.009075286
201	0x3eb03314	0.3441397
202	0xbcf6349b	-0.030054381
203	0x3e51a14d	0.20471688
204	0x3d9f1d5a	0.0776927
205	0x3dd9afdb	0.10629245
206	0x3da82e7f	0.082119934
207	0x3cf4287f	0.029804466
208	0xbdd300bc	-0.103028744
209	0x3d569e02	0.05239678
210	0xbd642243	-0.055696737
211	0xbda2d72e	-0.079511985
212	0x3b8c54aa	0.0042825537
213	0xbdb45733	-0.088056944
214	0xbe84192c	-0.25800455
215	0xbcf2d8a2	-0.029644314
216	0x3e353973	0.17697696
217	0xbe271260	-0.16315603
218	0xbd916ed7	-0.07101219
219	0xbcae8060	-0.021301448
220	0xbe0f8d6c	-0.14018792
221	0x3e6c3618	0.2306751
222	0xbe509f48	-0.20373261
223	0xbd297c6b	-0.04137842
224	0x3c21291b	0.00983646
225	0xbd21fcfc	-0.039547905
226	0x3df9ac3a	0.12191053
227	0xbe0f1149	-0.13971438
228	0xbc5ff76c	-0.01366983
229	0xbe215681	-0.15755655
230	0x3df6d50c	0.12052354
231	0x3d6563a1	0.056003217
232	0xbd74492e	-0.059640102
233	0x3da756be	0.08170842
234	0x3e1b31f8	0.1515578
235	0x3e05194c	0.12997931
236	0x3d9300be	0.07177876
237	0xba3aac9f	-0.00071210595
238	0xbd941e69	-0.07232363
239	0xbe070581	-0.13185693
240	0x3d865df2	0.065608874
241	0x3e59961b	0.21248667
242	0xbe1c7ac8	-0.15281212
243	0x3e2cc454	0.16871768
244	0xbbe3df6a	-0.0069541233
245	0xbe3f9c49	-0.18711962
246	0x3d4224b9	0.047398303
247	0x3d12ae9e	0.03581106
248	0x3e6b5541	0.2298174
249	0xbcfabffe	-0.030609127
250	0x3e524230	0.20533061
251	0x3e6e66a6	0.23281345
252	0xbd930fee	-0.07180773
253	0xbe0bba61	-0.13645317
254	0xbc778f04	-0.015109781
255	0x3de71b1f	0.1128447

phi_x.2.bias f4 [100]
0	0x3df99e08	0.12188345
1	0x3dbd7406	0.09250645
2	0xbdf99c9b	-0.12188073
3	0xbdddfeed	-0.10839639
4	0x3d677f4b	0.05651788
5	0x3d9ee649	0.07758767
6	0x3d29a62e	0.041418247
7	0xbe0a244e	-0.13490412
8	0x3bbd46a9	0.0057762456
9	0x3ec58983	0.38581476
10	0x3cac4c7e	0.021032568
11	0x3e8268eb	0.2547067
12	0x3d487246	0.048937105
13	0x3e6cf62a	0.23140779
14	0xbdd5462c	-0.10413775
15	0xbe3c6a22	-0.18399861
16	0xbd2a6711	-0.041602198
17	0xbd674e76	-0.05647131
18	0xbd9cae5a	-0.076504424
19	0xbdc9bc45	-0.09850363
20	0x3d5ad7e3	0.053428542
21	0xbd93ab6c	-0.072104305
22	0x3d334f47	0.043776777
23	0x3d8c38cd	0.068467714
24	0x3cabe8af	0.020984976
25	0x3d05daed	0.032679487
26	0x3e4dbc73	0.20091419
27	0x3e7c24c4	0.246234
28	0x3de22c48	0.11043602
29	0xbccab483	-0.024744278
30	0xbc947337	-0.018121345
31	0x3d70c121	0.058777932
32	0xbdaae5a4	-0.08344582
33	0x3d809be4	0.06279734
34	0xbd54d698	-0.051962465
35	0x3d34677c	0.044044003
36	0xbd404b71	-0.046946947
37	0x3d9c6342	0.076361194
38	0x3e10420b	0.14087693
39	0xbdf62413	-0.12018599
40	0x3c327ed0	0.010894492
41	0x3e9bff50	0.30468225
42	0x3d65a478	0.056065053
43	0x3e099302	0.13434985
44	0x3d648007	0.05578616
45	0x3e243d12	0.16038921
46	0x3c2819de	0.0102600735
47	0x3e0e7c53	0.13914613
48	0x39dd25fe	0.0004218071
49	0xbdd19248	-0.10232979
50	0xbc5599ca	-0.013037154
51	0x3e3df6d1	0.18551184
52	0x3e095138	0.13409889
53	0x3d84b5e6	0.06480007
54	0x3e175e27	0.1478201
55	0xbe86e5aa	-0.26347095
56	0xbdc2c046	-0.095093295
57	0xbdaaecef	-0.08345973
58	0xbdaeb10a	-0.08529861
59	0xbd6dcb3f	-0.05805516
60	0xbd346745	-0.044043798
61	0x3da75c65	0.0817192
62	0xbd59d962	-0.053185828
63	0x3d61cc3c	0.055126414
64	0x3d94ed61	0.07271839
65	0x3d648d44	0.055798784
66	0xbd6374a6	-0.055531166
67	0xbcb08f65	-0.02155275
68	0xbd8cd99a	-0.06877442
69	0xbe20b840	-0.15695286
70	0xbd8d0c91	-0.068871625
71	0xbd7724da	-0.06033788
72	0x3ccbfc20	0.024900496
73	0xbd95c1b8	-0.073123395
74	0xbc72df2e	-0.014823718
75	0x3e287d11	0.16453959
76	0xbdff6068	-0.1246956
77	0xbd5cf202	-0.053941734
78	0xbb439414	-0.00298429
79	0x3d97bb15	0.0740873
80	0x3c211de0	0.009833783
81	0x3e096c53	0.13420229
82	0xbbff4835	-0.00779059
83	0x3d2771c3	0.040879976
84	0x3e667f15	0.22509415
85	0x3e20f4ea	0.15718427
86	0x3ca715ef	0.020396201
87	0xbd4af2ca	-0.049547948
88	0x3e08151b	0.13289301
89	0xbd7537a1	-0.059867505
90	0x3da8c56b	0.082407795
91	0x3e0fb0c2	0.14032272
92	0xbcffe409	-0.031236665
93	0xbe79de94	-0.24401313
94	0x3d413f98	0.04717979
95	0xbe0cd056	-0.13751349
96	0xbd73d5ab	-0.05952994
97	0xbc274644	-0.010209624
98	0xbdf578e2	-0.11985947
99	0x3c6bbb4a	0.014387915

phi_z.0.weight f4 [100, 16]
0	0xbb8474c6	-0.004042241
1	0x3bbdebbe	0.005795925
2	0x3b48350c	0.0030549197
3	0x3c0c9005	0.008579259
4	0x3c36755f	0.011136382
5	0x3a85a684	0.001019672
6	0xbc14513e	-0.009052573
7	0x3dd279fe	0.102771744
8	0x3b553ac4	0.0032536248
9	0xbc39853e	-0.011323271
10	0xbb802cb8	-0.003911581
11	0x3c75b98a	0.014997849
12	0x3c894fa9	0.016761618
13	0xbc672596	-0.014108082
14	0x3c00f61e	0.007871179
15	0xbc7a3108	-0.015270479
16	0x3ca7cff0	0.020484895
17	0x3ba015be	0.0048854044
18	0xbc0eb066	-0.008709049
19	0xbd566e24	-0.052351132
20	0x3cf312b7	0.02967201
21	0xbbcbc012	-0.006217965
22	0x3d1c581d	0.03816997
23	0xbb8bdb82	-0.0042681107
24	0xbcbfdf09	-0.023421781
25	0x3e00050a	0.12501922
26	0x3cdf0763	0.027225202
27	0x3d094db6	0.033521377
28	0xbcff3966	-0.0311553
29	0xbc69a387	-0.014260179
30	0x3d6268c0	0.05527568
31	0x3cae0cdc	0.021246366
32	0xbc77ddc7	-0.015128559
33	0xbcecdc4e	-0.028913643
34	0x3bf4a8ed	0.0074664266
35	0xbca4b136	-0.020104032
36	0x3a68ffcb	0.0008888214
37	0xbd0b907e	-0.034073345
38	0x3c0f6cf2	0.008754002
39	0xbb9a8cb8	-0.004716482
40	0xbc0432a9	-0.008068719
41	0xbc3788cb	-0.011202048
42	0xbc9a661c	-0.018847518
43	0x3cb51adb	0.022107532
44	0x3c99d534	0.018778421
45	0x3cc9f426	0.024652552
46	0xbc1b7fe3	-0.00949094
47	0x3c48b04a	0.012249062
48	0xbcb60c42	-0.022222642
49	0x3c9d06a5	0.019168207
50	0x3b44286a	0.0029931315
51	0x3b5074bb	0.0031807858
52	0x3c566c98	0.013087414
53	0xbc2ced2f	-0.010554596
54	0xbb83fc6b	-0.0040278933
55	0xbbe834ab	-0.0070863566
56	0x3d2eb0cb	0.04264907
57	0xbca9496a	-0.02066489
58	0x3c0b9fd9	0.008521997
59	0x3b99ce6a	0.004693796
60	0xbb212a51	-0.0024591873
61	0xbc0d68cf	-0.008630945
62	0x3c2c2044	0.01050574
63	0x3c3e57e0	0.011617631
64	0xbd69e498	-0.05710277
65	0x3d806f73	0.06271257
66	0x3dda6399	0.10663528
67	0xbc9c422c	-0.019074522
68	0x3d6b380e	0.057426505
69	0xbccc9ab8	-0.02497612
70	0xbc9fa3bb	-0.019487252
71	0xbced6867	-0.028980447
72	0xbce7eae1	-0.028310241
73	0xbd893c0c	-0.06700906
74	0xbc284b9e	-0.010271935
75	0x3ce89687	0.02839209
76	0x3d287961	0.04113138
77	0xbc9995a7	-0.018748118
78	0x3d0eeb60	0.03489244
79	0xbc6f98fd	-0.014623878
80	0x3dd9f49e	0.1064236
81	0x3dbdb8a1	0.09263731
82	0xbd4c373e	-0.04985737
83	0xbdcd1268	-0.10013276
84	0xbe19171a	-0.14950219
85	0x3d968d50	0.07351172
86	0xbdbb788d	-0.091538526
87	0xbb357ea6	-0.0027693897
88	0xbddd0bd2	-0.1079327
89	0xbe29ef66	-0.1659523
90	0x3d570de1	0.05250347
91	0x3d5bd7bf	0.05367255
92	0x3d837dfb	0.06420513
93	0xbde3fd61	-0.111323126
94	0x3d829d48	0.06377655
95	0xbe59b5a5	-0.21260698
96	0xbbda800a	-0.0066680955
97	0xbbae085b	-0.0053110546
98	0x3bf0b911	0.0073462804
99	0x3c29a03c	0.010353144
100	0x3c22892f	0.009920402
101	0x3b79183f	0.0038008837
102	0xbc103e48	-0.0088039115
103	0x3e581402	0.21101382
104	0xbc2bba72	-0.010481464
105	0x3c6c78b1	0.014433072
106	0xbb7e2cd7	-0.003878405
107	0xba6714fd	-0.0008815078
108	0xbc6d70f4	-0.014492262
109	0x3b3ce581	0.0028823318
110	0xbb72e65f	-0.0037063581
111	0xbb1c604a	-0.0023861104
112	0xbc4a4092	-0.012344496
113	0xbc66e143	-0.0140917925
114	0xbc5810a7	-0.013187564
115	0x3d3cceef	0.046095785
116	0x3cef5757	0.029216452
117	0x3bd8a6d6	0.0066116853
118	0x3cdcad7e	0.026938196
119	0xbbbf8671	-0.005844884
120	0x3ce3d244	0.027810223
121	0x3cefb2e5	0.029260108
122	0x3d3d9309	0.0462828
123	0x3cbfe125	0.023422787
124	0xbd24c6ce	-0.040228657
125	0xbd6073de	-0.054798
126	0x3c7c2473	0.01538955
127	0xbd462ccb	-0.04838256
128	0xbc2d562f	-0.01057963
129	0xbd0e7c5b	-0.034786563
130	0xbc939f1c	-0.018020205
131	0xbcbba48b	-0.022905609
132	0x3ccd7648	0.025080815
133	0xbc6c7e40	-0.014434397
134	0xbbfd6e73	-0.007734114
135	0xbc874ca4	-0.016516037
136	0x3d2bba42	0.041925676
137	0x3cb85f9d	0.02250653
138	0xbc2e2db3	-0.010631013
139	0x3d707d60	0.058713317
140	0xbbd3c049	-0.006462131
141	0x3c8edf19	0.017440366
142	0xbd73b2c2	-0.05949665
143	0xbce2ea82	-0.027699713
144	0xbda44887	-0.08021646
145	0xbd7781fa	-0.06042669
146	0x3d29a1b4	0.041413978
147	0x3d54ad98	0.051923364
148	0x3da20c5d	0.07912514
149	0x3d074fde	0.03303515
150	0x3d9e4370	0.077277064
151	0xbcc8af20	-0.024497569
152	0xbd1f502a	-0.03889481
153	0x3d59efa8	0.05320707
154	0x3d2d7661	0.042349223
155	0x3daaf130	0.08346784
156	0x3c719294	0.01474442
157	0xbcbb4f8e	-0.022865083
158	0x3c91a32a	0.017777998
159	0xbe1a2016	-0.15051302
160	0xb9a3f6b4	-0.0003127359
161	0x37a3d080	1.9528205e-05
162	0x3c3ffc3b	0.011717851
163	0xbc88d994	-0.016705312
164	0xbba2f0eb	-0.0049725673
165	0x3b1c1a44	0.0023819366
166	0x3c11c1cc	0.008896302
167	0x3e56607a	0.2093524
168	0x3c408e0b	0.011752616
169	0xbbe4a2b1	-0.006977402
170	0xbc802c57	-0.015646143
171	0x3cbc41b3	0.022980547
172	0x3b306784	0.002691717
173	0x3b770ec1	0.0037698003
174	0xbc494d09	-0.012286433
175	0xbb533088	-0.0032224972
176	0xbb0c8290	-0.0021440126
177	0xbbe65083	-0.0070286407
178	0xbbd5ebeb	-0.0065283678
179	0x3c22ab83	0.009928587
180	0x3c3f681b	0.0116825355
181	0xbbd64e23	-0.0065400763
182	0x3c2ab1b6	0.010418346
183	0xbe10f728	-0.14156783
184	0xbae95eb6	-0.0017804715
185	0x3ccde6a6	0.025134396
186	0x3c0a3602	0.008435728
187	0xbd738402	-0.059452064
188	0xbb472232	-0.0030385372
189	0x3bcd8062	0.006271408
190	0xbc9c179d	-0.019054228
191	0x3c3be740	0.0114687085
192	0x3cd66182	0.026169542
193	0xbd92e384	-0.071723014
194	0xbc2a9740	-0.010412037
195	0x3da2b8d2	0.07945408
196	0x3d01b4d7	0.031666603
197	0x3c8ac1d6	0.016938131
198	0x3b0effcc	0.0021819947
199	0xbc97b940	-0.018520951
200	0x3d254d60	0.040356994
201	0xbd06a5b1	-0.03287286
202	0xbc8ad65a	-0.016947914
203	0x3d81655b	0.0631816
204	0xbc9490ff	-0.018135546
205	0x3cf4d3fe	0.029886242
206	0x3b46ecb5	0.003035349
207	0x3d069c8a	0.03286413
208	0x3db04b22	0.086080804
209	0x3d8e5f70	0.06951797
210	0xbd2d3152	-0.042283364
211	0xbde0e26d	-0.10980687
212	0xbe165094	-0.14679176
213	0x3d4ed19c	0.050492868
214	0xbd46bf0d	-0.048522044
215	0xbaab31fa	-0.0013061159
216	0xbd6c8730	-0.057746112
217	0xbde1614d	-0.11004887
218	0xbcb9366c	-0.022608958
219	0x3bbd1e91	0.005771466
220	0x3d27644d	0.04086714
221	0xbde5813a	-0.11206289
222	0x3c90a252	0.017655525
223	0xbe2b8919	-0.16751517
224	0x3c9dab7e	0.019246813
225	0x3cf19971	0.029492112
226	0x3aebd5ec	0.0017992831
227	0xbd3b17c3	-0.045676958
228	0xbce3aa23	-0.027791088
229	0x3d0174d7	0.031605568
230	0xbaa7a447	-0.0012790047
231	0xbeb45b47	-0.3522589
232	0x3c3043b2	0.010758327
233	0xbdd0d889	-0.10197551
234	0xbc1cc167	-0.009567595
235	0x3df6c45c	0.12049171
236	0x3cdc0557	0.026858015
237	0xbd1bc0d3	-0.03802569
238	0xbc182670	-0.009286508
239	0xbd5abe10	-0.053403914
240	0xbd08287b	-0.03324173
241	0xbb9f4526	-0.004860538
242	0x3c849bb4	0.016187526
243	0xbc4e90ec	-0.012607794
244	0xbca19f86	-0.019729387
245	0x3becdf49	0.007228766
246	0x3c42633b	0.011864479
247	0xbb5006c4	-0.0031742314
248	0xbc340455	-0.010987361
249	0xbc692dac	-0.01423208
250	0x3b0969e9	0.0020967668
251	0x3b57e90f	0.003294531
252	0xbc8c54f4	-0.017130353
253	0x3c3b1d82	0.011420609
254	0xbcd540fb	-0.026031962
255	0xba450820	-0.00075161643

phi_z.0.bias f4 [100]
0	0xbcf78fd9	-0.03021996
1	0xbf07664d	-0.52890474
2	0xbe3811e8	-0.1797558
3	0xbe094b75	-0.13407691
4	0xbe8d9f4e	-0.27660602
5	0xbf2f789a	-0.685434
6	0x3b87abf7	0.004140373
7	0xbeb2cb2e	-0.3492064
8	0xbeb04894	-0.34430373
9	0xbf1a8152	-0.6035358
10	0xbcf09375	-0.029367188
11	0xbd93bb7d	-0.07213495
12	0xbf178a90	-0.59195805
13	0xbf1f2e92	-0.62180436
14	0xbdbf99ed	-0.09355531
15	0xbe27ba90	-0.16379762
16	0xbe784ccf	-0.2424805
17	0x3e177b63	0.14793162
18	0x3cdbafe4	0.02681727
19	0x3d3fa112	0.046784468
20	0xbdb21065	-0.08694533
21	0x3d824ffa	0.063629106
22	0xbe8091a6	-0.2511112
23	0xbe15daca	-0.14634243
24	0x3e4992d3	0.19684915
25	0xbf0f3963	-0.5594694
26	0xbe249d71	-0.16075684
27	0xbc40c205	-0.011765008
28	0xbe2f20f6	-0.17102417
29	0xbe5d717c	-0.21625322
30	0xbf2893f7	-0.65850776
31	0xbe834ea3	-0.25645933
32	0xbe538cb2	-0.2065914
33	0xbf0d5270	-0.55203915
34	0x3dd2c5a6	0.10291605
35	0xbf52d111	-0.8235026
36	0xbee1ee71	-0.4412723
37	0xbe49cc22	-0.19706777
38	0x3ccc064b	0.024905344
39	0xbe15b6ba	-0.14620486
40	0xbe24f133	-0.16107635
41	0x3e412c26	0.18864498
42	0xbdce7caa	-0.100823715
43	0xbe0bc343	-0.13648705
44	0x3df2d86b	0.11857685
45	0xbed847e5	-0.4224235
46	0xbf2cdbb7	-0.6752276
47	0xbf08056f	-0.5313329
48	0xbe6f80c1	-0.2338896
49	0xbdd638e1	-0.104600675
50	0xbefcd553	-0.49381503
51	0xbe44cb10	-0.19218087
52	0xbf131f65	-0.5746978
53	0xbf3a5a96	-0.72794473
54	0x3e3a7264	0.18207699
55	0xbea0ce23	-0.3140727
56	0xbdf9ba6e	-0.12193762
57	0xbf15f8a1	-0.585825
58	0xbf40e855	-0.7535451
59	0xbf1de431	-0.6167632
60	0xbe85e1fe	-0.2614898
61	0xbe68f1e8	-0.2274853
62	0xbef03cb8	-0.46921325
63	0xbe80f924	-0.2519008
64	0xbf222b21	-0.6334706
65	0xbe888486	-0.26663607
66	0x3d49058f	0.049077567
67	0xbea9d7ca	-0.33172446
68	0xbe47e633	-0.19521408
69	0xbf344cea	-0.7042986
70	0xbdd9f054	-0.10641542
71	0xbd60dc66	-0.05489769
72	0xbe68492f	-0.22684167
73	0xbe08b4d7	-0.13350235
74	0xbf23bd13	-0.6396038
75	0xbf432ec8	-0.7624326
76	0xbe097087	-0.13421832
77	0xbedc9a8f	-0.4308667
78	0xbe7bd2b6	-0.24592099
79	0xbee14421	-0.4399729
80	0xbe3ac2be	-0.18238351
81	0xbf0bd276	-0.5461801
82	0xbf227a84	-0.63468194
83	0xbb63ed1c	-0.003477878
84	0xbf33ee6e	-0.7028569
85	0xbe8570d9	-0.26062658
86	0xbe779d98	-0.24181211
87	0xbe2e4c6b	-0.17021339
88	0xbf266b49	-0.65007454
89	0xbe4bcb4c	-0.1990177
90	0xbf4e10b7	-0.80494255
91	0xbed1d5e8	-0.4098351
92	0xbf84492a	-1.0334828
93	0xbe8b60f5	-0.2722241
94	0xbe0842e4	-0.13306767
95	0xbf0b16ea	-0.5433184
96	0xbe22e4a5	-0.15907533
97	0xbed327a2	-0.41241175
98	0xbf06f164	-0.5271208
99	0xbf8d020e	-1.1016252

enc.0.weight f4 [100, 200]
0	0x3cdfcd42	0.027319554
1	0x3d313715	0.04326542
2	0x3c85d109	0.016335027
3	0xbd6666ed	-0.0562505
4	0xbd1d9429	-0.038471375
5	0xbdace47a	-0.08442016
6	0x3d04d51d	0.032429803
7	0xbe04dfea	-0.12976041
8	0xbd97ccc8	-0.07412106
9	0xbd3f2da8	-0.0466744
10	0xbc41833f	-0.011811077
11	0xbd205140	-0.039139986
12	0xbb93fa70	-0.0045159385
13	0x3d2216d1	0.03957254
14	0xbd64bc57	-0.055843677
15	0xbda6446d	-0.0811852
16	0xbbd5b6e3	-0.006522046
17	0xbd663a53	-0.056207966
18	0xbd560649	-0.052252088
19	0xbca36d95	-0.019949714
20	0xbd1a34ea	-0.03764812
21	0xbc246915	-0.010034819
22	0xbb4777cb	-0.0030436392
23	0xbd7e4dd5	-0.062085945
24	0xbd900935	-0.07033006
25	0xbd3a22d1	-0.04544336
26	0x3ccd0e3c	0.025031202
27	0xbd9f3ead	-0.07775626
28	0xbd43e128	-0.047822148
29	0x3c702fc2	0.014659824
30	0xbc1edd12	-0.009696262
31	0xbd3f49f2	-0.04670138
32	0xbcc09342	-0.023507718
33	0xbd1b433f	-0.037905928
34	0x3b73d1be	0.0037203874
35	0xbdfa300c	-0.122161955
36	0xbd11d84c	-0.035606667
37	0x3cf306f3	0.0296664
38	0x3d07c657	0.033148136
39	0x3c54e4db	0.0129940165
40	0xbd8e1b04	-0.069387466
41	0x3bac72c5	0.005262705
42	0xbd156696	-0.036474787
43	0xbde5816e	-0.112063274
44	0x3cf2a49c	0.029619507
45	0xbd11172a	-0.03542248
46	0xbd287230	-0.041124523
47	0xbd975fa4	-0.07391289
48	0xbc483610	-0.012219921
49	0xbd182f65	-0.037154574
50	0xbde7c2a0	-0.11316419
51	0xbd8cf6c1	-0.06883002
52	0xbb879165	-0.0041372054
53	0xbd4b232c	-0.04959409
54	0xbd9d101c	-0.07669088
55	0xbdd3bfb9	-0.103393026
56	0xbd5b6484	-0.053562656
57	0x3bfed9a1	0.007777408
58	0x3c2181e5	0.009857629
59	0xbd550ad0	-0.052012265
60	0x3d9c3a96	0.07628362
61	0x3c96a73c	0.01839029
62	0xbcf5cfac	-0.030006252
63	0x3d2cbe75	0.04217382
64	0x3c71e91a	0.014765048
65	0xbb9f97f0	-0.0048704073
66	0x3cd91348	0.026498452
67	0x3ce6371f	0.028102456
68	0xbd9c2a34	-0.07625237
69	0xbb95fdbf	-0.004577368
70	0xbd68f9b3	-0.056878757
71	0xbcfbec50	-0.030752331
72	0xbcc5df9a	-0.024154473
73	0xbd84c470	-0.0648278
74	0x3c6c1690	0.014409676
75	0xbcf0cff7	-0.02939604
76	0xbc752cae	-0.014964266
77	0x3d244b0d	0.040110637
78	0x3cd81046	0.026374947
79	0xbd94e5d9	-0.072704025
80	0xbdd36706	-0.103223845
81	0x3d09b064	0.033615485
82	0x3c4f1fb2	0.012641834
83	0xbd872356	-0.06598537
84	0x3b80de53	0.003932753
85	0xbda8a926	-0.082353875
86	0xbde76d23	-0.11300113
87	0xbdc0ec49	-0.09420068
88	0xbd625992	-0.055261202
89	0x3cf28508	0.02960445
90	0x3c2db6b3	0.010602641
91	0xbc25abeb	-0.010111789
92	0x3cd5ab2f	0.026082603
93	0xbd1d850d	-0.038456965
94	0xbde06317	-0.109564
95	0xbd48768a	-0.048941173
96	0xbddd7926	-0.10814123
97	0xbc18a536	-0.009316733
98	0xbd30423c	-0.043031916
99	0xbdb28655	-0.08717028
100	0xbd368e8f	-0.04456955
101	0xbd879cb3	-0.06621685
102	0xbd6686f6	-0.056281053
103	0xbd1666c4	-0.0367191
104	0xbd852414	-0.06501022
105	0x3cb671be	0.022271033
106	0xbdbc7af4	-0.09203139
107	0xbd0854ca	-0.033283986
108	0x3dae9767	0.085249715
109	0xbc0b6fa9	-0.008510509
110	0xbd2f0308	-0.0427275
111	0xbc6afb6c	-0.01434217
112	0x3dc3e075	0.09564296
113	0xbe1a2438	-0.15052879
114	0xbcef2207	-0.02919103
115	0xbd4def83	-0.050277244
116	0xbd8d653d	-0.06904075
117	0x3e3517b4	0.17684823
118	0x3c609533	0.013707447
119	0xbce8cfb8	-0.02841936
120	0x3d98dceb	0.07464012
121	0xbd0267bd	-0.031837214
122	0xbc2ca326	-0.0105369445
123	0x3d5cd92f	0.05391806
124	0xbcb511b6	-0.022103172
125	0x3c588d61	0.013217301
126	0x3c437e9b	0.011932041
127	0x3d919922	0.07109286
128	0x3dbc74aa	0.092019394
129	0x3da6af9b	0.08138963
130	0x3cb5201d	0.02211004
131	0xbd722fba	-0.059127547
132	0xbdc52421	-0.09626032
133	0x3d4fb047	0.05070522
134	0xbc72fafb	-0.014830346
135	0x3ba0a475	0.0049024173
136	0x3c4b2de8	0.012401082
137	0xbd8c1c68	-0.068413556
138	0xbd8bf9ac	-0.068347305
139	0x3c5b76fc	0.013395067
140	0x3d13192b	0.035912674
141	0xbd8cd3d8	-0.068763435
142	0xbdf959d8	-0.121753395
143	0xbc73ef62	-0.014888616
144	0xbca679fa	-0.020321835
145	0x3c3c75ae	0.011502666
146	0x3daeb244	0.08530095
147	0xbcfe4843	-0.031040316
148	0xbc6da863	-0.014505479
149	0xbdaeb09b	-0.085297786
150	0x3cb5035b	0.022096327
151	0x3cd0f3bf	0.025506852
152	0xbc69e8fc	-0.014276739
153	0xbcfe8f33	-0.031074142
154	0x3b8dfb8b	0.004332965
155	0xbcf996fd	-0.030467505
156	0x3d9325a4	0.07184914
157	0xbdc1446c	-0.094368786
158	0x3a87eb26	0.0010369762
159	0x3d3ee822	0.046608098
160	0xbd3f9b82	-0.046779163
161	0xbc6521a5	-0.013985072
162	0x3d371ece	0.044707112
163	0x3dde7050	0.10861266
164	0xbd9056ee	-0.070478305
165	0xbda7c27c	-0.08191392
166	0x3c64a6b0	0.013955757
167	0x3d6acb07	0.05732253
168	0x3d9afad2	0.075673714
169	0x3c10b872	0.008833038
170	0xbb8041e8	-0.0039141066
171	0x3cb9c2c0	0.022675872
172	0x3c9d82fd	0.0192275
173	0xbcc5dd92	-0.024153505
174	0x3b3f7a29	0.00292171
175	0xbcb96247	-0.02262987
176	0xbd7e4fed	-0.062087942
177	0x3e27a06f	0.16369794
178	0xbd0b5096	-0.0340124
179	0x3c3e1720	0.011602193
180	0x3cc76fd2	0.024345312
181	0x3daeff07	0.08544736
182	0x3b3bcf83	0.0028657622
183	0x3d5a8d12	0.05335719
184	0x3c98ca43	0.018651133
185	0x3b545d36	0.003240419
186	0x3d40afa3	0.0470425
187	0xbc09ecb3	-0.00841825
188	0x3c3d3701	0.0115487585
189	0x3d4ec7b5	0.050483424
190	0x3cf231f3	0.029564833
191	0xbbedfbab	-0.007262667
192	0xbc3451be	-0.011005817
193	0x3cdc7e97	0.026915831
194	0xbbfb58e8	-0.0076705106
195	0x3cb2c07b	0.021820297
196	0x3dcd7fa2	0.1003411
197	0x3d0068af	0.031349834
198	0x3bc74a48	0.006081853
199	0xbc420046	-0.0118408855
200	0x3df0d6d3	0.117597245
201	0x3db98ce8	0.09060079
202	0xbdba18b6	-0.090867445
203	0xbd9b1ebe	-0.07574223
204	0xbe056641	-0.13027288
205	0x3de451ec	0.11148438
206	0xbe4c8743	-0.19973473
207	0xbdf1f8c6	-0.11815028
208	0xbe6f67fa	-0.23379508
209	0x3b6e3a92	0.0036350829
210	0xbc7c8ac4	-0.015413944
211	0x3ddc4b9f	0.10756611
212	0x3d8d86b6	0.0691046
213	0x3cbfcac8	0.023412123
214	0x3c860f92	0.016364846
215	0x3e0734d3	0.13203745
216	0xbc83a92b	-0.016071877
217	0xbcac95af	-0.021067468
218	0x3d5c26ea	0.05374805
219	0xbd11484e	-0.035469346
220	0xbdbd15ec	-0.09232697
221	0x3b264079	0.0025368019
222	0xbd94be9a	-0.07262917
223	0x3d7e354c	0.062062547
224	0x3c3fbf6e	0.011703355
225	0x3d83a97e	0.064288124
226	0xbd664fdf	-0.056228515
227	0x3d711064	0.058853522
228	0xbdabd84e	-0.08390866
229	0xbd2e5288	-0.042559177
230	0x3d6fb7cf	0.058524903
231	0x3ce7bf9e	0.028289612
232	0x3df2cc67	0.11855393
233	0xbd004860	-0.031319022
234	0xbd407469	-0.046986017
235	0x3cca03fc	0.024660103
236	0xbdd33200	-0.10312271
237	0xbd872e4d	-0.06600628
238	0xbdc460ab	-0.095887505
239	0x3ccab7f2	0.024745915
240	0xbd93d5eb	-0.07218536
241	0x3cd5f129	0.02611597
242	0xbe1146a7	-0.14187108
243	0xbc8e310f	-0.017357377
244	0x3c18ba9f	0.009321838
245	0xbd2cbad8	-0.042170376
246	0xbdcdab59	-0.100424476
247	0x3dbc2a30	0.09187734
248	0x3c8cb5b8	0.017176494
249	0x3d969785	0.07353119
250	0xbcd8ed57	-0.02648036
251	0xbd21d954	-0.0395139
252	0x3e96cda7	0.29453775
253	0xbdc2bf74	-0.09509173
254	0x3dae7228	0.08517867
255	0x3d32e363	0.043673884

enc.0.bias f4 [100]
0	0xbc86f788	-0.016475454
1	0xbc3ec256	-0.011643013
2	0xbda30200	-0.07959366
3	0xbd773a3c	-0.06035827
4	0xbd8651fe	-0.065586075
5	0xbdf2c57a	-0.11854072
6	0xbd84b7e3	-0.06480386
7	0x3e3ce0d8	0.18445146
8	0xbd8f1a5b	-0.06987449
9	0xbd1943aa	-0.037418045
10	0xbddaea3f	-0.1068921
11	0xbd4541db	-0.048158508
12	0x3d1d6cec	0.038433954
13	0xbb876304	-0.0041316766
14	0x3c88f0ce	0.016716387
15	0xbd1bef32	-0.03806991
16	0x3d22d0bd	0.03974985
17	0x3d98cae4	0.07460573
18	0x3c3f35c4	0.011670534
19	0xbc3f1b1e	-0.01166418
20	0xbcf80ba2	-0.030278984
21	0x3c8183b1	0.015809866
22	0xbdffb9bf	-0.124866
23	0xbd4de534	-0.050267413
24	0xbae8b966	-0.0017755448
25	0xbe3c4d22	-0.18388799
26	0xbde47743	-0.1115556
27	0x3e06d016	0.13165316
28	0xbd5af750	-0.05345851
29	0x3db0740f	0.086158864
30	0x3ca9f3cd	0.020746136
31	0xbd726361	-0.059176806
32	0x3ce75863	0.028240388
33	0x3e3f4a07	0.18680583
34	0x3c90c5b4	0.017672397
35	0x3decefd5	0.11569182
36	0xbddd76fd	-0.10813711
37	0x3d2be186	0.041963123
38	0x3ccad8df	0.024761615
39	0x3d85bd74	0.06530276
40	0xbd6041fa	-0.05475042
41	0xbca5a0db	-0.020218303
42	0x3c31203f	0.010810911
43	0x3d5aa8cf	0.053383645
44	0xbd001e04	-0.031278625
45	0xbcf6931f	-0.03009945
46	0xbdb22bdf	-0.08699774
47	0xbdba8d9d	-0.09109042
48	0xbce9ca10	-0.028538734
49	0xbdc3eb4d	-0.095663644
50	0xbc51edc4	-0.012813035
51	0xbd622de3	-0.055219542
52	0xbda60a66	-0.08107452
53	0x3da9dc57	0.082939796
54	0x3c191826	0.009344136
55	0xbd9cb66b	-0.07651981
56	0x3b8e1ad9	0.0043366966
57	0xbcabe1e6	-0.02098174
58	0x3d310d2b	0.04322545
59	0x3d15353e	0.03642773
60	0xbd46507a	-0.048416592
61	0x3d642592	0.055699892
62	0x3c70ca1c	0.014696624
63	0x3dfe7173	0.124239825
64	0xbd9023af	-0.07038056
65	0x3bdfe9b7	0.006833281
66	0xbc87b269	-0.016564565
67	0x3d1f309e	0.038864724
68	0x3c52621e	0.012840776
69	0xbd76ec85	-0.060284156
70	0x3becbe2a	0.0072248178
71	0x3c9a48f6	0.018833619
72	0xbd97cc15	-0.074119724
73	0xbd0b3832	-0.03398914
74	0xbdf92ef9	-0.121671624
75	0x3e4215a7	0.18953572
76	0x3d927b26	0.07152395
77	0xbd638f04	-0.055556312
78	0x3c3d27ed	0.011545164
79	0xbd7bb03d	-0.06144737
80	0xbd281590	-0.04103619
81	0x3cc7063a	0.024294961
82	0x3dcf0a33	0.10109367
83	0xbd8e3987	-0.06944566
84	0xbd8cdb51	-0.06877769
85	0xbd006516	-0.031346403
86	0xbd8ef685	-0.069806136
87	0xbda40e27	-0.08010512
88	0xbd8ee93c	-0.0697808
89	0x3dfde3b9	0.1239695
90	0xbd68984e	-0.056785874
91	0xbc1bca20	-0.00950864
92	0xbd7a3410	-0.061084807
93	0x3a89effd	0.0010523793
94	0xbdf57f3a	-0.11987157
95	0xbdcbdcdc	-0.09954235
96	0x3d0027cb	0.03128795
97	0x3c97f699	0.018550204
98	0x3d4453ff	0.047931667
99	0xbdb1f1a2	-0.08688666

enc.2.weight f4 [100, 100]
0	0x3d463bb6	0.04839679
1	0xbd5928ef	-0.053017553
2	0x3d502c04	0.050823227
3	0xbcc76bfa	-0.02434348
4	0x3d1a69d3	0.037698578
5	0xbe7253c4	-0.23664767
6	0xbd826e46	-0.06368689
7	0x3e32de99	0.17467727
8	0xbdd426ff	-0.103590004
9	0x3d1bedd5	0.03806861
10	0x3ddfe335	0.10932008
11	0x3b4ef327	0.0031578036
12	0xbcebf961	-0.028805437
13	0x3daec812	0.08534254
14	0x3e5b45e4	0.2141338
15	0xbee061c5	-0.43824592
16	0xbdd1f269	-0.10251314
17	0x3dade538	0.08490986
18	0xbdbd7af3	-0.09251966
19	0x3d4f947c	0.050678715
20	0xbd986b57	-0.074423485
21	0x3bb1e1ce	0.0054285293
22	0x3da20d08	0.07912642
23	0xbd68e011	-0.05685431
24	0x3c746efb	0.014919038
25	0xbe90cfe4	-0.28283608
26	0x3dbf14d9	0.09330148
27	0x3d7c88b7	0.06165382
28	0xbc608ed2	-0.013705926
29	0xbe453bc2	-0.19261077
30	0x3d498600	0.049200058
31	0xbe17ca7f	-0.1482334
32	0xbe61dce7	-0.22056924
33	0x3e6879af	0.22702669
34	0x3cfdf0a5	0.030998537
35	0xbab5435c	-0.0013829279
36	0xbc0b29a6	-0.0084938165
37	0x3d81d31c	0.06339094
38	0x3da114f8	0.078653276
39	0xbd783326	-0.060595654
40	0x3c029725	0.007970606
41	0xbe282d2f	-0.16423486
42	0x3dcfaaf2	0.10140027
43	0x3dee1aa7	0.11626177
44	0x3d97df63	0.074156545
45	0xbcccaee3	-0.024985736
46	0xbcbb0349	-0.022828715
47	0x3d81a72f	0.06330716
48	0x3d4fc568	0.05072537
49	0xc01e1cef	-2.470516
50	0xbcbb89f1	-0.022892924
51	0x3d8cada2	0.06869055
52	0xbd78a3b7	-0.060703006
53	0x3ca63843	0.0202905
54	0x3dcced57	0.100062065
55	0x3bd519d1	0.0065033217
56	0x3c931769	0.017955499
57	0xbea4f503	-0.3221818
58	0xbeb6e673	-0.35722694
59	0x3dc494e7	0.09598713
60	0x3b5d71c8	0.0033789743
61	0xbd8adcf6	-0.06780426
62	0x3d64bb45	0.055842657
63	0x3dc03fa5	0.09387139
64	0xbc12d278	-0.0089613125
65	0xbd065c42	-0.032802828
66	0xbdc3b8fe	-0.09556769
67	0xbe9856d9	-0.2975376
68	0xbdf98444	-0.12183431
69	0xbc1657a9	-0.009176173
70	0x3e01cc1e	0.12675521
71	0xbcd8017a	-0.026367892
72	0xbdc99b5d	-0.09844086
73	0xbe12441f	-0.14283799
74	0x3e127447	0.14302169
75	0x3e260cf8	0.16215885
76	0xbd6bc1f2	-0.057558008
77	0x3d8ce60c	0.068798155
78	0xbe44308c	-0.19159144
79	0xbc97235c	-0.018449478
80	0x3d3c913b	0.04603694
81	0x3c03295d	0.008005467
82	0x3caf43f6	0.021394711
83	0xbe55a9d3	-0.20865564
84	0x3d9a5aa2	0.07536818
85	0xbd1085db	-0.035283905
86	0xbcb9b8c1	-0.022671105
87	0xbcfd63c4	-0.030931361
88	0x3d6fb6da	0.05852399
89	0x3ccbdb3a	0.024884809
90	0x3e38f161	0.18060829
91	0xbe0c32fe	-0.13691327
92	0xbe65d536	-0.22444615
93	0xbdcc9372	-0.099890605
94	0xbe00ffc0	-0.12597561
95	0xbdac662a	-0.08417924
96	0xbe401f5a	-0.1876196
97	0x3d96dc90	0.07366288
98	0x3df0233a	0.11725469
99	0x3d58fe57	0.052976932
100	0xbd9653c9	-0.073401995
101	0x3d9cd6ae	0.076581344
102	0xbd226a4b	-0.03965215
103	0xbe20ef82	-0.15716365
104	0x3d966e3b	0.073452435
105	0xbc808384	-0.015687712
106	0xbc12a1bf	-0.008949696
107	0xbf2c058d	-0.6719597
108	0x3cc98b82	0.024602655
109	0xbd1fd761	-0.03902376
110	0x3d65546d	0.055988718
111	0x3cf121de	0.029435094
112	0x3c9b90d5	0.01898996
113	0xbc9e40b8	-0.01931797
114	0xbe6f5ea8	-0.23375952
115	0x3b94316c	0.004522493
116	0xbb878a9f	-0.004136398
117	0x3cea7352	0.028619442
118	0x3d279864	0.040916815
119	0x3d8eded9	0.069760986
120	0x3da68261	0.081303366
121	0x3d7fd10f	0.062455233
122	0xbda9ef0f	-0.0829755
123	0xbd98f8c6	-0.07469325
124	0x3c0b9731	0.008519934
125	0x3d823aaf	0.06358849
126	0xbd0f1da3	-0.034940373
127	0x3c17bc12	0.009261148
128	0xbd1a6f96	-0.037704073
129	0xbdd2243f	-0.1026082
130	0x3bd75329	0.0065711928
131	0xbd23b8ad	-0.039971042
132	0x3e218d23	0.15776496
133	0x3e8fac55	0.28061166
134	0xbebed38f	-0.3727078
135	0x3d63b93d	0.05559658
136	0xbd84166f	-0.06449591
137	0xbdb5c99a	-0.08876343
138	0x3b340d85	0.0027473879
139	0x3dc64a9c	0.09682199
140	0x3c030de9	0.007998922
141	0xbd8089b8	-0.06276268
142	0x3d91db97	0.071219616
143	0x3d86b26c	0.06577
144	0x3dc01efc	0.0938091
145	0x3dbda8ca	0.092607096
146	0x3ce9549e	0.028482731
147	0xbd6f0a06	-0.05835917
148	0xbd085499	-0.033283804
149	0x3d9d4801	0.07679749
150	0x3d4c0dcb	0.04981784
151	0xbe0ca500	-0.13734818
152	0xbd0c89fe	-0.034311287
153	0x3e0b8daa	0.1362826
154	0xbd6ff265	-0.058580775
155	0x3db5e2bb	0.08881136
156	0xbeaa5cf9	-0.33274058
157	0x3bb58447	0.0055394503
158	0x3dc7d348	0.097570956
159	0x3db13f33	0.086546324
160	0x3dcc01ff	0.09961318
161	0x3e39437e	0.18092152
162	0xbf13d44e	-0.57745826
163	0x3c84df4d	0.01621976
164	0xbe412abf	-0.18863963
165	0xbe02718b	-0.12738626
166	0xbd101c71	-0.035183374
167	0xbc956ce2	-0.018240396
168	0xbec3f758	-0.38274646
169	0x3d23dbde	0.040004604
170	0x3bba6fe2	0.005689607
171	0xbdbc05e9	-0.09180815
172	0x3ca954c0	0.020670295
173	0x3d26eeb9	0.040755007
174	0x3cfae0b3	0.030624723
175	0x3e9d2f84	0.30700314
176	0xbf047ac8	-0.5174985
177	0xbe15b786	-0.1462079
178	0xbe498f88	-0.19683659
179	0xbd63e268	-0.05563584
180	0xbdb72e75	-0.08944408
181	0xbdb04764	-0.08607367
182	0xbe270eb7	-0.16314207
183	0xbe86772c	-0.26262796
184	0xbdcf620a	-0.10126121
185	0x3c509165	0.012729977
186	0xbd1b39d5	-0.03789695
187	0xbccec642	-0.025241021
188	0xbceb1955	-0.028698603
189	0xbca8f669	-0.02062531
190	0xbe3aa09b	-0.18225329
191	0xbea6ba92	-0.32564217
192	0xbc6468a7	-0.013940967
193	0xbd12b0dc	-0.035813197
194	0xbc77ce21	-0.015124829
195	0x3cda57d9	0.026653217
196	0xbf103b38	-0.5634036
197	0xbe5bac26	-0.21452388
198	0x3c2751df	0.010212391
199	0x3d5174c0	0.051136732
200	0x3d524437	0.051334586
201	0xbe91a33b	-0.28444847
202	0xbc998e4e	-0.018744614
203	0xbddda37c	-0.10822198
204	0xbda94412	-0.082649365
205	0x3d5ece24	0.05439581
206	0xbbb632b3	-0.005560243
207	0x3e31f7fa	0.17379752
208	0x3ca15f4c	0.019698761
209	0x3d9e1cd4	0.07720342
210	0x3d755ec9	0.059904847
211	0x3d77b57f	0.060475823
212	0xbdc7e792	-0.097609654
213	0x3d6e3f66	0.05816593
214	0x3df201fa	0.11816783
215	0x3d0b6e29	0.034040604
216	0xbd80dde7	-0.062923245
217	0xbc8e32bd	-0.017358178
218	0x3da6c601	0.08143235
219	0x3d97b022	0.074066415
220	0x3d43be55	0.047788937
221	0x3d5811e1	0.052751426
222	0x3db577f2	0.088607684
223	0xbd964876	-0.073380396
224	0x3d28bd29	0.041196022
225	0x3e77249a	0.24135056
226	0x3d1095b8	0.035299033
227	0xbdf7e433	-0.121040724
228	0x3d849d57	0.06475323
229	0x3dab5550	0.083658814
230	0xbd543d40	-0.051816225
231	0xbc9a7c13	-0.018857991
232	0x3e2c369c	0.16817707
233	0x3e639477	0.22224604
234	0xbd819b92	-0.06328501
235	0x3ddd7e4d	0.108151056
236	0xbdcfa088	-0.10138041
237	0x3ca56ad5	0.020192543
238	0xbc9bc59f	-0.019015132
239	0x3de75659	0.112957664
240	0xbd8d321e	-0.06894325
241	0xbdc44195	-0.09582821
242	0xbda411ca	-0.080112055
243	0xbdacab6d	-0.084311344
244	0xbd2bad3a	-0.04191325
245	0x3e1245f1	0.14284493
246	0xbca19f39	-0.019729244
247	0xbbdaf3e4	-0.006681906
248	0xbc705242	-0.014668049
249	0xbd73a7bf	-0.059486147
250	0xbcb313b4	-0.021859981
251	0x3e0c3662	0.1369262
252	0xbc1aa504	-0.009438757
253	0xbdfc95de	-0.123332724
254	0x3bafb182	0.0053617368
255	0x3dba1d6b	0.09087642

enc.2.bias f4 [100]
0	0x3e722e05	0.23650368
1	0x3e8153aa	0.25259143
2	0x3b1e8091	0.0024185518
3	0x3deb4791	0.114882596
4	0x3d9b6463	0.075875066
5	0x3c3e1345	0.011601274
6	0xbe1860c5	-0.14880665
7	0xbc57ec80	-0.013178945
8	0x3e11b70d	0.14229985
9	0xbe03cb4a	-0.12870517
10	0x3da120b7	0.07867568
11	0x3e45e891	0.19326998
12	0x3cd90c2e	0.026495066
13	0x3c0df555	0.008664449
14	0xbd08125e	-0.03322064
15	0x3e2b20af	0.16711687
16	0xbd9b55cf	-0.07584726
17	0x3dba35c0	0.09092283
18	0x3e143030	0.14471507
19	0xbd555a8e	-0.052088313
20	0x3dbf40fa	0.09338565
21	0xbe19447a	-0.14967528
22	0x3e26b498	0.16279829
23	0xbe1cd596	-0.15315852
24	0x3dc0eefc	0.09420583
25	0x3d420534	0.047368243
26	0xbce0a843	-0.027423983
27	0x3cf23c93	0.0295699
28	0x3d2d5906	0.042321227
29	0x3c71b86a	0.01475344
30	0xbde572b3	-0.11203518
31	0xbe05a5ae	-0.13051483
32	0x3cc85afa	0.024457444
33	0xbded79e9	-0.11595518
34	0xbd198ce3	-0.037487876
35	0xbe14f317	-0.14545856
36	0x3e75eb05	0.24015434
37	0xbdf3933b	-0.11893316
38	0xbdac9d04	-0.08428386
39	0x3df415cf	0.11918222
40	0x3dad7d38	0.08471149
41	0x3d8d9da1	0.06914831
42	0x3df747cc	0.12074241
43	0x3d22e507	0.0397692
44	0x3dbc2220	0.09186196
45	0x3e390c4e	0.180711
46	0x39a8a86f	0.0003216895
47	0x3db8abff	0.09017181
48	0x3e1d700e	0.15374777
49	0x3d699d62	0.057034858
50	0x3e717e97	0.23583446
51	0xbe30415c	-0.17212433
52	0xbe1c5e1f	-0.1527028
53	0x3e5367c6	0.20645055
54	0xbe0559c5	-0.13022526
55	0xbd2d5fd6	-0.042327724
56	0xbd2148ac	-0.039375946
57	0x3d74d2fb	0.05977152
58	0xbdfd2f04	-0.12362483
59	0x3d20c5cd	0.039251138
60	0xbd912299	-0.07086677
61	0xbc8a704e	-0.016899254
62	0x3d16cbf7	0.03681561
63	0xbd836dda	-0.06417437
64	0x3cc5fa25	0.02416713
65	0xbe570a44	-0.2100001
66	0xbe1295f0	-0.14315009
67	0xbea7c8e6	-0.3277046
68	0xbc87af2d	-0.016563023
69	0xbd9d95c4	-0.07694581
70	0xbdbf04e6	-0.09327106
71	0xbda04c36	-0.07827036
72	0x3d79943e	0.06093239
73	0x3cfd08e0	0.030888021
74	0xbd99fa99	-0.07518501
75	0x3c8c33f9	0.017114626
76	0x3e149958	0.14511621
77	0x3c1ec9a3	0.009691629
78	0xbe92460c	-0.28569067
79	0x3db35425	0.08756284
80	0xbcb6252b	-0.02223452
81	0x3d6c9ffb	0.057769757
82	0xbc3908ba	-0.0112935845
83	0xbd6386dd	-0.055548538
84	0xbc680a59	-0.014162623
85	0xbd2c6b0a	-0.042094268
86	0xbdf0c451	-0.117561944
87	0x3d8ff091	0.07028306
88	0xbdb0491b	-0.08607694
89	0xbd19047f	-0.037357803
90	0x3e8eeb79	0.27914026
91	0x3cd46827	0.02592857
92	0x3c48148a	0.012211928
93	0x3d105018	0.035232633
94	0xbdc048f9	-0.093889184
95	0x3e2e1734	0.17001039
96	0x3ce51c65	0.027967641
97	0x3e87ab4b	0.26497874
98	0xbd8ff02f	-0.07028233
99	0x3e1b257e	0.15151021
